app/src/main/assets/model_Tangerang.tflite (tflite, 147284 bytes, 11 tensors)

sequential_20/dense_41/MatMul;sequential_20/dense_41/BiasAdd f4 [3]
00000000: bc3e bf3e b367 a33e fe82 723d
0.3735255 0.31915054 0.059206955

sequential_20/lstm_41/Read_2/ReadVariableOp f4 [200]
00000000: ddc7 36bd e315 793e 5b52 7dbd f7a1 85bd
00000010: 46a2 63bd be09 95bd d60a 2cbd 176a 85bd
00000020: 7d4f abbd 0d8a 21be 0ff7 eebc ed06 533e
00000030: 569e 0ebd 2663 92bd 3e1a 8dbc 5050 8abc
00000040: d926 603e 057c 3dbd 5568 35bb d802 e13b
00000050: d6e6 993e 961a 4e3e 38f1 ffbc 6eb1 34bd
00000060: b495 0b3e a827 c9bc 516c a7bd 6f93 06bd
00000070: ea49 a7bc 7ed7 11bd 597a 01be 65e0 13be
00000080: 17c5 31bd 8344 4abd c89d 65bd 6fdd 56bd
00000090: 1d73 56bb e65d ccbd 4b87 2cbd 827f f4bd
000000a0: 0707 06bc dd8a c13c 40b1 0a3d b0d4 43bd
000000b0: 8b69 ffbc 96a2 6c3d 8da0 3ebd 420a 743e
000000c0: 7103 12bd dac6 aabc 2108 713f ff2c 4a3f
000000d0: a076 753f 50b3 663f 7abf 6c3f 1746 763f
000000e0: 6828 7d3f 1583 713f 0f57 6d3f cfd9 543f
000000f0: a71f 793f 41ee 563f f18b 6c3f 8700 793f
00000100: 9373 793f 06fb 6a3f 1319 783f 2bf6 6e3f
00000110: a164 6f3f fb0e 5d3f 472a 593f 9d31 513f
00000120: 39fc 6f3f 4d51 703f d968 673f 3278 5a3f
00000130: 71aa 753f fba9 7a3f 76a5 7b3f 3d84 763f
00000140: 439c 5f3f 083f 623f b1e2 703f ede1 6d3f
00000150: d805 783f 185a 6a3f 00dc 713f cda7 6b3f
00000160: e9ad 5d3f e3bb 723f f0ea 6b3f a947 6f3f
00000170: fabf 623f ee1c 743f be74 763f 8966 673f
00000180: 9ff3 773f fa8b 4a3f 2032 7c3f 49ea 7d3f
00000190: 9b7b a6bc c89a 4aba 8e49 0a3d a998 8bbb
000001a0: 362b d1bc adc7 6a3c 07a6 1e3c b754 733c
000001b0: cfe4 8fbc ed7f 7ebc 33af aebc ecd1 6e3c
000001c0: 3fe1 293a b9ad 2ebd 0f93 313d 70ee fe3c
000001d0: 6ef0 443d e3bd 94bc f4db 8a3c 5aa5 023c
000001e0: e794 cf3c 8450 1ebd 19b8 c83c 6748 b73c
000001f0: 9cfb 823c d0eb fabb 314c 01bc 6e6c 0c3d
00000200: f963 643d ec38 e4bc db8c 5f3c 290c a33c
00000210: 72ac a4bb 364c a43c 2e2a 4e3c 1414 04bc
00000220: 7af2 2b3d 8741 093c 2b87 e1bc 101c c5bc
00000230: cda3 253c 36da 503b 4c84 3dbb 60be bebc
00000240: 8bc9 27ba 483b 11bc 3009 2bbd a719 45bc
00000250: 564e cebb c639 3e3d a2d9 3abd 2887 613e
00000260: d94a 84bd 76f5 7ebd c584 7ebd fa81 9fbd
00000270: d2ae 44bd e572 8cbd 829e aabd 1a92 24be
00000280: 7a8b dbbc a4ad 403e 70c9 1abd 2a5e 97bd
00000290: f1ca c1bc f325 67bc b7eb 543e 249d 2ebd
000002a0: 7897 8abc 3c1c 3c38 e9d7 a53e 516a 4d3e
000002b0: 4f82 51bd 9a77 6abd 7e43 e43d 8a14 68bd
000002c0: be4e 98bd a035 36bd 5fde fcbc 1573 3dbd
000002d0: 4e2c ffbd a211 16be aa89 4bbd 5617 85bd
000002e0: b1dd 83bd 7902 85bd 44e6 03bc 92f1 dabd
000002f0: aaf1 2cbd 2406 11be 81c3 c5bb 58a6 e73b
00000300: 938f b9bb 007c 64bd 45c1 1abd 18c0 563d
00000310: fb67 63bd e5fb 693e 9327 21bd af60 d0bc
-0.0446242 0.24324755 -0.06184612 -0.06525033 -0.055574678 -0.07277249 -0.04200252 -0.06514376
-0.083647706 -0.15775318 -0.029170541 0.2060811 -0.03481897 -0.07147817 -0.017224427 -0.016884
0.21889819 -0.046260852 -0.0027680595 0.006866794 0.30058926 0.20127329 -0.031242952 -0.044114523
0.13631326 -0.024555042 -0.081749566 -0.032855447 -0.020420987 -0.0356059 -0.12644328 -0.14441068
-0.04340085 -0.049381744 -0.056058675 -0.05245727 -0.0032722421 -0.09978847 -0.042121213 -0.11938383
-0.008180386 0.023625785 0.033860445 -0.047810256 -0.031178256 0.05777224 -0.046539832 0.23832038
-0.035647813 -0.020846773 0.9415303 0.7897491 0.9588413 0.9011736 0.9247967 0.962007
0.9888978 0.9434064 0.92710966 0.8314485 0.9731392 0.83957297 0.92401034 0.9726643
0.9744198 0.9178928 0.9691326 0.9334437 0.9351292 0.86350983 0.84830135 0.8171633
0.93744236 0.93874055 0.9039436 0.85339653 0.959632 0.9791562 0.9829935 0.9629553
0.8734781 0.8837743 0.94095904 0.9292286 0.96883917 0.9154372 0.9447632 0.9205292
0.8659349 0.9481794 0.9215536 0.9346872 0.88574183 0.95356643 0.96271884 0.9039083
0.9685611 0.7911984 0.98513985 0.99185616 -0.020322612 -0.00077287527 0.033761553 -0.004260142
-0.0255333 0.014329833 0.009683139 0.014851741 -0.01756516 -0.01553343 -0.021323776 0.014576416
0.00064804027 -0.042646144 0.043353137 0.031119555 0.048080854 -0.018156951 0.016950585 0.007973993
0.025339557 -0.038651004 0.024501847 0.022373391 0.015989117 -0.0076575056 -0.007891701 0.034283094
0.055759404 -0.027859174 0.013644422 0.01990326 -0.00502544 0.020055871 0.012583299 -0.008061428
0.04197929 0.008377439 -0.027530273 -0.024061233 0.010109854 0.0031868345 -0.0028917966 -0.023284137
-0.00064005767 -0.008864231 -0.04175681 -0.012030042 -0.0062959595 0.046441816 -0.045617707 0.22024214
-0.064595886 -0.06224581 -0.062138338 -0.07788463 -0.048018284 -0.06857852 -0.08331014 -0.16071358
-0.026799906 0.18816239 -0.037789762 -0.07391007 -0.02365634 -0.014108169 0.20793043 -0.04263033
-0.016917929 4.484899e-05 0.3239129 0.20060088 -0.051149663 -0.057242967 0.111456856 -0.056660213
-0.07436894 -0.044484735 -0.030867754 -0.04625233 -0.12459622 -0.14655164 -0.049691834 -0.064985916
-0.06438769 -0.06494612 -0.008050505 -0.10690607 -0.042222656 -0.14162499 -0.006035269 0.0070693903
-0.0056628673 -0.055782318 -0.037781972 0.05242929 -0.055519085 0.22849996 -0.03934438 -0.025436727

sequential_20/lstm_40/Read_2/ReadVariableOp f4 [200]
00000000: af05 b53b faf3 3f3c e649 55bd a623 193d
00000010: d780 3f3d 6d38 d8bc 305c 3e3e daea 093e
00000020: 8597 ddbc 3e5e 743e af09 323e 507e 393e
00000030: c6db 6fbd 414a c33e 03ae 923e 4afd a03c
00000040: d855 113e d68f 813d e154 7c3e 2425 63bd
00000050: 83b6 793e a06d 153e 187d bbbc f86b d4bc
00000060: 862f 353d 6555 d93d bc2e 93bd 2346 5bbd
00000070: af07 783e 04d3 1f3e a4ee ba3d 4c7f 79bc
00000080: 7e20 60bb f359 d3bb 45d2 1abc fe6c 6a39
00000090: aeeb 82bc 2299 1ebd 2995 2dbd 4607 933e
000000a0: e7ff 45bd 65d9 e3bd cc85 043d 6c71 a0bd
000000b0: f42d 43bc adc1 6b3e 8d45 33bd 6fbb b7bd
000000c0: bc6e b63e cac6 dcb9 abc4 783f 0c15 743f
000000d0: 88cc 6e3f 9670 7f3f 05d4 703f fd02 773f
000000e0: 898e 5b3f 2ed0 6d3f 4105 713f da68 5e3f
000000f0: 019e 6f3f 9b3f 6f3f 0ef5 773f 8250 753f
00000100: c27a 4c3f 55ea 713f e7bf 643f f9c8 723f
00000110: 66ef 813f 72f5 713f 6cb5 7e3f cb80 753f
00000120: 4e14 793f c5a1 713f d2a5 783f 873e 5a3f
00000130: c854 7d3f a273 6d3f 6f19 523f bcef 6f3f
00000140: a144 793f 0e44 723f 9bf2 733f b006 7a3f
00000150: b365 6a3f 6bea 7e3f a670 743f 9c09 703f
00000160: f98a 683f ad99 803f db43 713f d73d 713f
00000170: ff52 793f 9b92 6b3f 8bae 7c3f 32bf 753f
00000180: 4200 783f 4fe3 5a3f 3961 593f 1d5d 763f
00000190: b167 47bc 65ae ee3c 1548 aa3c 911a d73c
000001a0: 9b81 14bc b57a 3f3c b8a5 a2bc b1e3 b2bc
000001b0: c7e8 a23c 0ca6 1dbd adf0 ba3c 6816 dd3b
000001c0: 4f29 09bd 8b8b 81bc 3eb1 1dbc 60e6 883d
000001d0: 3b08 f2ba cd8d a23c a843 8a3c f1ab 11bd
000001e0: 68b1 69bc 246c 803c f13d f83c 9528 3e3d
000001f0: 8bd1 97bd 2122 7eba eac6 863c 12a5 63bc
00000200: 7577 d83a bb72 763c 3fb0 223d bd1a 713d
00000210: fa9c 5fbb 9cda c4bc ac4c 713d f45b 84bd
00000220: 1668 033c dc2b 1d3d c807 44bc 93ea 6ebd
00000230: 4da5 38bd db4d 123d e9cd 90bd a790 733c
00000240: 5ed7 cebc 9c03 c8ba 8ce9 d83c 3637 203d
00000250: 6c2f 2b3b a5ea 38bd 253f a3ba 1b6e a63b
00000260: 7cd9 74bd df22 193d 59c7 6e3d 84eb f4bc
00000270: c679 2f3e 54d1 143e 1f22 f9bc e6a3 673e
00000280: e836 413e 2823 353e edfb 83bd c4ea b63e
00000290: 8635 813e a862 6b3c 22d7 163e d107 8a3d
000002a0: e722 643e 4482 6fbd d066 523e a1c4 143e
000002b0: 1e7a c3bc 489c eabc da03 253d f631 c23d
000002c0: 7752 a0bd 397d 5cbd 3076 7b3e 6855 223e
000002d0: 7781 923d d28f 0fbd 364b 9fbb b8f9 903b
000002e0: af2c eebb 64d7 0d3c 373c f0bc 602b 25bd
000002f0: fa24 2cbd 51e7 8e3e 9ef9 48bd c28d e5bd
00000300: 8933 fa3c bcb9 a3bd a768 72bc 303f 683e
00000310: 5652 3cbd 5104 a7bd c4b8 a43e 209c 503c
0.005524359 0.011715883 -0.05207243 0.037387513 0.04675373 -0.026394093 0.18589854 0.13468495
-0.02704979 0.23864076 0.17386506 0.1811459 -0.0585592 0.3814259 0.28648385 0.019652028
0.14192903 0.06326263 0.24641754 -0.055455342 0.24386029 0.145926 -0.022886798 -0.02593039
0.044234775 0.10611991 -0.07186648 -0.053533684 0.24221681 0.1560784 0.09127548 -0.015228104
-0.0034199054 -0.0064499318 -0.009449546 0.00022356582 -0.015981521 -0.038720258 -0.04237858 0.28716487
-0.04833975 -0.11125449 0.03235416 -0.078341335 -0.011912812 0.230231 -0.0437675 -0.08971297
0.3563136 -0.0004210978 0.9717509 0.95344615 0.9328084 0.9978117 0.94073516 0.96488935
0.85764366 0.9289578 0.9414864 0.8687874 0.9360047 0.9345643 0.968583 0.9582597
0.79874814 0.9449819 0.8935532 0.9483791 1.0151184 0.94515145 0.9949558 0.9589965
0.9729661 0.94387466 0.9712802 0.8525166 0.9895749 0.92754567 0.8207006 0.9372518
0.97370344 0.94635093 0.9529206 0.97666454 0.9156143 0.99576443 0.9548439 0.9376466
0.90837055 1.0046898 0.94244164 0.94234985 0.97392267 0.9202058 0.9870383 0.95994866
0.96875393 0.85503095 0.84913975 0.9623583 -0.012170718 0.029135892 0.020786325 0.026257785
-0.0090641035 0.0116869705 -0.019854411 -0.021837087 0.019886388 -0.038488433 0.022819841 0.006747056
-0.03348666 -0.01581361 -0.009624777 0.066845655 -0.0018465588 0.019843007 0.016877964 -0.035564367
-0.014263488 0.015676565 0.030302973 0.04642542 -0.07413014 -0.00096944167 0.016452271 -0.013894336
0.0016515093 0.015042002 0.039718863 0.05886339 -0.0034120665 -0.024030022 0.05891101 -0.06462851
0.0080204215 0.038371906 -0.011964746 -0.058329176 -0.045079518 0.03571878 -0.07070524 0.014866031
-0.02524918 -0.0015259865 0.026478551 0.039115153 0.0026120795 -0.04514565 -0.0012454732 0.0050790436
-0.05977772 0.03738677 0.05829558 -0.029897459 0.17136297 0.14532977 -0.030411778 0.22621116
0.18868601 0.17689192 -0.064445354 0.35725987 0.25236148 0.014366783 0.14730504 0.06739772
0.22278939 -0.05847384 0.20547032 0.14528133 -0.023861941 -0.028638974 0.040286876 0.094821855
-0.07828229 -0.05383036 0.24556804 0.15852892 0.071536 -0.035049267 -0.0048612608 0.0044243
-0.0072685103 0.00865731 -0.029325588 -0.04032457 -0.04202745 0.27910855 -0.04906618 -0.11208679
0.030542152 -0.079944104 -0.014795459 0.22680354 -0.04597696 -0.0815512 0.32172215 0.012732536

sequential_20/dense_40/MatMul1 f4 [25, 50]
00000000: a494 03be c8a6 b9be 8567 8a3e b95e 85be
00000010: a7ab 553e bd28 8b3d a4c6 06bd 87a9 ae3d
00000020: 2008 c03d 376c a53e ab03 80be 07ed ce3d
00000030: 98ff bbbc dfbb 45bd 7493 d33d b924 07be
00000040: 4955 e73c 1c4f f5bc 55f1 163e c293 573c
00000050: 37be 5dbe 7bcb 9dbd 6b11 123e 35e1 5bbe
00000060: ba15 4abd c975 7bbe 9f3e ecbd a406 ad3d
00000070: 04a4 6b3d b3f2 3a3d 45bd d13d 8f7a fc3c
00000080: d2e3 40be 4097 98be ac14 20be af41 0a3e
00000090: 8536 293e ba14 97bd 27be 103e 98f4 60be
000000a0: cfce 7d3c 33d6 8f3a 56dd a0bc b7ef 27bd
000000b0: 5e81 893e baba db3d 940a af3d fd9c 19be
000000c0: 9137 49bd 0165 dc3d 72b2 833e d591 b83e
000000d0: 455a 81be 5ec8 aebd f3e5 223e 8269 86be
000000e0: 3412 373e 9623 333d fcf0 dcbc ac46 cebc
000000f0: 945c c83d f05c b93c 9f69 35be 972e e6bd
00000100: 212a 15bd a893 173e 87dc cb3d 43b4 1dbd
00000110: af3d 663e 16ee 153e 68e0 88be 9f90 963e
00000120: 8e82 17be 06d7 233e da14 423e b5af 9f3e
00000130: a7d0 edbd e85e 3cbe 037d 2f3d f058 82be
00000140: 82a7 76be 06fd b83c 62a4 1a3d af05 8dbe
00000150: 1d42 b4bd 0ab3 2f3e 2da4 8f3d 5631 94be
00000160: 345e 6f3e 6af6 a23c ca5c 8e3e cdfa 8a3e
00000170: 00ee 2fbe 2c2b 04bd f562 3b3e d86c 7f3e
00000180: c86f 423d c32b 12bb c829 823d f764 853d
00000190: 5ddb 683e 1ba3 6b3e ad70 8ebe c213 463e
000001a0: bba2 28bb 6094 61be e7df 083e 9d37 433e
000001b0: a33a 213e 8062 d2bd 8bb3 a13d d79d f6bd
000001c0: d605 223e 281d 193e 5085 d13d 73a4 79be
000001d0: f7b9 f5bd f485 853e 7047 143e 49a7 5e3e
000001e0: 3eca a7bd f9f5 703e 0024 34be 8dea 1a3e
000001f0: 8094 873e 413e 833e eed7 8ebd 101c 453d
00000200: d38c a13d 12ea 50be 2537 263e e02a 3cbe
00000210: b977 573d 31be 2c3e bcdc 67be ff44 bcbd
00000220: 9fb0 003d b0c7 7bbd 358e 47be f113 a33d
00000230: 09a3 a83c 166a 7b3e d817 a33e 1d9a 353d
00000240: bc15 443e 1c6c 033e 8ae4 003e 663d 3ebe
00000250: 8778 263d 1de1 033e a80d 56bd 1e96 d2bd
00000260: 6d3b f8bd ad55 373e acfd a2bd d347 693e
00000270: 3138 41be 6e55 743e 5498 033e 6fce e13d
00000280: ffb3 9cbe 79ab 9cbc 1ccc ee39 091c 99be
00000290: 4c3e 51bc ab47 a33d 89be 29bd 43f4 9fbd
000002a0: 30c3 263d ad08 3a3e 6b7b e6bd 868e 283d
000002b0: 8055 593d f3c8 84bd 9302 103e 80af bcbd
000002c0: 8ec4 083e 3f55 703d 7842 803e 4fe2 b1bd
000002d0: ef89 50be ff2e 123e 6c1b 05be 0ab0 0fbe
000002e0: 46b5 40be 3bd8 22bd b042 8bbe c7b2 98bd
000002f0: 2fd0 06bd aced 9c3d 7872 853e bf45 7abe
00000300: 0bbf 7bbe 7943 79be 906e 313e 6238 5e3d
00000310: 4c6e 2c3c 7fe5 373c e818 dc3d d3b4 cb3d
00000320: 98e3 b63c 2605 38be fd6d 1fbd 3916 243d
00000330: 8d61 b4bd 4678 babd 92aa 343e 09f2 6bbc
00000340: 35a1 51be 98ef 4fbe 1c6f 5b3d 22f2 81bc
00000350: da15 75be 2b3c c53d 373c dbbb 8167 b4bd
00000360: b342 64bc a7ad 173e fa69 a0bc b199 53be
00000370: 545b 38bc aa7c 09be 5bf7 debc 2816 213e
00000380: eb7f 8cbd 53d3 69bd be9e f23b b83c 58be
00000390: 50de 79bd 706e af3d d19f 05be 6b23 68bc
000003a0: 5a76 61be cfe0 29be d5b5 c5bd 45f1 ffbd
000003b0: bd29 10be 1de2 40be 1b39 36be a051 8abd
000003c0: cfc8 af3d 328f 54bd 64e4 30bd 69c5 573e
000003d0: 60fb 55bc 9165 5a3e ff65 d2bd 4d8f 0d3e
000003e0: d399 54be d491 23be e4ad 49bd ad08 813e
000003f0: ba03 e4bd f690 f63d ec69 b23d d691 f2bd
-0.1284967 -0.36260056 0.27032104 -0.2604883 0.20866261 0.067948796 -0.032904282 0.085284285
0.0937655 0.32309124 -0.25002798 0.10103803 -0.022949025 -0.04827487 0.10330859 -0.13197602
0.02823891 -0.029944949 0.14740498 0.013157787 -0.21654592 -0.077048264 0.14264457 -0.21472628
-0.049337126 -0.2455665 -0.115353815 0.08448532 0.057529464 0.045641612 0.102411784 0.03082016
-0.18836907 -0.29802895 -0.15632886 0.13501619 0.16524704 -0.07377 0.14135037 -0.21968305
0.015491202 0.001097387 -0.019636791 -0.041000094 0.26856512 0.10728975 0.085469395 -0.15001293
-0.049125258 0.107614525 0.2572208 0.3604876 -0.25264183 -0.08534311 0.15908031 -0.2625237
0.17878038 0.04373511 -0.026970379 -0.025180183 0.09783283 0.022627324 -0.17716072 -0.11239355
-0.03641713 0.1480242 0.09954172 -0.03850199 0.22484468 0.14641604 -0.26733708 0.29407212
-0.14795896 0.15999994 0.18953267 0.3118874 -0.11612063 -0.18395579 0.04284383 -0.2545848
-0.24087337 0.022581588 0.037754424 -0.275434 -0.088016726 0.17158142 0.07013736 -0.2894389
0.2337578 0.01989289 0.27805167 0.2714447 -0.17180634 -0.032267734 0.18299468 0.24943864
0.047469884 -0.0022303916 0.063556254 0.06513398 0.2273993 0.23011439 -0.2782034 0.19343475
-0.002573176 -0.22029257 0.13366662 0.19064184 0.15745024 -0.10272694 0.07895573 -0.12041824
0.15822539 0.14952528 0.102305055 -0.24379139 -0.119983606 0.2607876 0.14480376 0.21743502
-0.081928715 0.23531331 -0.17591858 0.15128537 0.26480484 0.25633433 -0.06974779 0.048122466
0.07888188 -0.2040179 0.16231973 -0.1837573 0.05260441 0.16869427 -0.22642797 -0.091928475
0.03141844 -0.061469734 -0.19487841 0.07962788 0.020585554 0.24552187 0.3185413 0.044336427
0.19148916 0.12834209 0.1258718 -0.18578109 0.040642288 0.12878843 -0.052259117 -0.10282539
-0.121207096 0.17903776 -0.0795854 0.22781305 -0.18869092 0.23860714 0.12851077 0.11025702
-0.30606076 -0.019124733 0.0004554697 -0.29904202 -0.0127712 0.07972654 -0.041441474 -0.07810261
0.04071349 0.18167372 -0.11254009 0.041151546 0.053060055 -0.064836405 0.14063482 -0.092131615
0.1335623 0.058675047 0.25050712 -0.08685743 -0.20365117 0.1427574 -0.12998742 -0.14031997
-0.1881915 -0.039756995 -0.27199316 -0.07455974 -0.032913383 0.0766252 0.26063895 -0.24440669
-0.24584596 -0.24342145 0.17327332 0.05425299 0.010524344 0.01122415 0.10746938 0.09946599
0.022325322 -0.17970714 -0.038923252 0.040060256 -0.08807669 -0.091049716 0.17643192 -0.014400967
-0.20471652 -0.20306242 0.05357276 -0.015862528 -0.23934117 0.09630617 -0.006690528 -0.08808804
-0.013931918 0.14812337 -0.019581784 -0.20664097 -0.011252243 -0.13426462 -0.027217558 0.15731108
-0.06860336 -0.0570863 0.0074041774 -0.21116912 -0.06100303 0.08565986 -0.13049246 -0.014168601
-0.22017804 -0.16589664 -0.09653822 -0.124971904 -0.14078422 -0.18836255 -0.17795222 -0.0675385
0.08583223 -0.051894374 -0.04318656 0.210714 -0.013060421 0.21327807 -0.102733605 0.13824196
-0.20761804 -0.15973598 -0.0492381 0.25201932 -0.11133523 0.12039368 0.08711609 -0.11844222

sequential_20/dense_41/MatMul f4 [3, 25]
00000000: 513d e33d dfb3 a6be 0b53 803c a335 b23e
00000010: 9be4 763d 2f9d 31bc 383f b23e 2a2d bd3e
00000020: dc84 b5be fb01 923e 163d f3bd 53fc 843e
00000030: f49b b83e daf7 283e 9c86 063e a7a4 74be
00000040: 1cac 07be 462e c93e ef3c 32be 6ad9 733e
00000050: d3f0 d03d c001 0b3d 7819 c6be 169c c53d
00000060: f7a9 553e 1819 363d 36c9 13be 9f49 073d
00000070: a8d2 48be f34e 8b3d 1891 803e c002 f63e
00000080: 2d69 be3e b46a 99be ed69 95bd 9321 0bbe
00000090: 3a9e 793e c777 8a3c e5d8 513e 8e01 b73d
000000a0: 4c45 9e3e 13b6 f33e 99f0 9c3e b6ab 83be
000000b0: dc4b bebe 5967 b53d 5ee1 7a3d 3c13 7a3e
000000c0: bde7 c23e 60ab 813e 3009 173d f3d7 b23d
000000d0: 74df 9e3d 36c6 1b3e b024 843d dd6d 633d
000000e0: 1491 86be 7209 9b3e ee72 b73d e4e2 633e
000000f0: e9da 60be 298d aa3e f380 49be 3db9 de3d
00000100: 13dd 76be 71ae 0b3e 0da3 903e 767f 113c
00000110: 1e3f afbe 7723 453e 876d 44be 5d7d 0e3e
00000120: 8da4 2dbd c9f9 97bd 1213 a43e
0.110956796 -0.32559106 0.015664598 0.34806547 0.06027661 -0.010840698 0.34813857 0.3694852
-0.35452926 0.28517136 -0.118768856 0.25973758 0.36056483 0.16500798 0.13137287 -0.23890935
-0.13249248 0.39293116 -0.17406057 0.23813406 0.102021836 0.033937216 -0.38691306 0.09648912
0.20865618 0.044457525 -0.14432225 0.033029195 -0.19611609 0.06802168 0.25110698 0.48048973
0.37189618 -0.2996422 -0.07295594 -0.13587026 0.24376765 0.016902817 0.20492895 0.089358434
0.30912244 0.4759985 0.3065231 -0.25716943 -0.3716725 0.088576026 0.061250083 0.244214
0.38067427 0.2532606 0.036873996 0.08732595 0.07757464 0.1521233 0.0645231 0.055524696
-0.2628256 0.30280644 0.08957468 0.2225452 -0.21958508 0.33310822 -0.19678096 0.10875175
-0.2410777 0.13640763 0.28249398 0.008880487 -0.34227842 0.1925181 -0.19182406 0.1391501
-0.042393256 -0.074206896 0.320458

sequential_20/lstm_40/Read_2/ReadVariableOp1 f4 [200]
00000000: af05 b53b faf3 3f3c e649 55bd a623 193d
00000010: d780 3f3d 6d38 d8bc 305c 3e3e daea 093e
00000020: 8597 ddbc 3e5e 743e af09 323e 507e 393e
00000030: c6db 6fbd 414a c33e 03ae 923e 4afd a03c
00000040: d855 113e d68f 813d e154 7c3e 2425 63bd
00000050: 83b6 793e a06d 153e 187d bbbc f86b d4bc
00000060: 862f 353d 6555 d93d bc2e 93bd 2346 5bbd
00000070: af07 783e 04d3 1f3e a4ee ba3d 4c7f 79bc
00000080: 7e20 60bb f359 d3bb 45d2 1abc fe6c 6a39
00000090: aeeb 82bc 2299 1ebd 2995 2dbd 4607 933e
000000a0: e7ff 45bd 65d9 e3bd cc85 043d 6c71 a0bd
000000b0: f42d 43bc adc1 6b3e 8d45 33bd 6fbb b7bd
000000c0: bc6e b63e cac6 dcb9 abc4 783f 0c15 743f
000000d0: 88cc 6e3f 9670 7f3f 05d4 703f fd02 773f
000000e0: 898e 5b3f 2ed0 6d3f 4105 713f da68 5e3f
000000f0: 019e 6f3f 9b3f 6f3f 0ef5 773f 8250 753f
00000100: c27a 4c3f 55ea 713f e7bf 643f f9c8 723f
00000110: 66ef 813f 72f5 713f 6cb5 7e3f cb80 753f
00000120: 4e14 793f c5a1 713f d2a5 783f 873e 5a3f
00000130: c854 7d3f a273 6d3f 6f19 523f bcef 6f3f
00000140: a144 793f 0e44 723f 9bf2 733f b006 7a3f
00000150: b365 6a3f 6bea 7e3f a670 743f 9c09 703f
00000160: f98a 683f ad99 803f db43 713f d73d 713f
00000170: ff52 793f 9b92 6b3f 8bae 7c3f 32bf 753f
00000180: 4200 783f 4fe3 5a3f 3961 593f 1d5d 763f
00000190: b167 47bc 65ae ee3c 1548 aa3c 911a d73c
000001a0: 9b81 14bc b57a 3f3c b8a5 a2bc b1e3 b2bc
000001b0: c7e8 a23c 0ca6 1dbd adf0 ba3c 6816 dd3b
000001c0: 4f29 09bd 8b8b 81bc 3eb1 1dbc 60e6 883d
000001d0: 3b08 f2ba cd8d a23c a843 8a3c f1ab 11bd
000001e0: 68b1 69bc 246c 803c f13d f83c 9528 3e3d
000001f0: 8bd1 97bd 2122 7eba eac6 863c 12a5 63bc
00000200: 7577 d83a bb72 763c 3fb0 223d bd1a 713d
00000210: fa9c 5fbb 9cda c4bc ac4c 713d f45b 84bd
00000220: 1668 033c dc2b 1d3d c807 44bc 93ea 6ebd
00000230: 4da5 38bd db4d 123d e9cd 90bd a790 733c
00000240: 5ed7 cebc 9c03 c8ba 8ce9 d83c 3637 203d
00000250: 6c2f 2b3b a5ea 38bd 253f a3ba 1b6e a63b
00000260: 7cd9 74bd df22 193d 59c7 6e3d 84eb f4bc
00000270: c679 2f3e 54d1 143e 1f22 f9bc e6a3 673e
00000280: e836 413e 2823 353e edfb 83bd c4ea b63e
00000290: 8635 813e a862 6b3c 22d7 163e d107 8a3d
000002a0: e722 643e 4482 6fbd d066 523e a1c4 143e
000002b0: 1e7a c3bc 489c eabc da03 253d f631 c23d
000002c0: 7752 a0bd 397d 5cbd 3076 7b3e 6855 223e
000002d0: 7781 923d d28f 0fbd 364b 9fbb b8f9 903b
000002e0: af2c eebb 64d7 0d3c 373c f0bc 602b 25bd
000002f0: fa24 2cbd 51e7 8e3e 9ef9 48bd c28d e5bd
00000300: 8933 fa3c bcb9 a3bd a768 72bc 303f 683e
00000310: 5652 3cbd 5104 a7bd c4b8 a43e 209c 503c
0.005524359 0.011715883 -0.05207243 0.037387513 0.04675373 -0.026394093 0.18589854 0.13468495
-0.02704979 0.23864076 0.17386506 0.1811459 -0.0585592 0.3814259 0.28648385 0.019652028
0.14192903 0.06326263 0.24641754 -0.055455342 0.24386029 0.145926 -0.022886798 -0.02593039
0.044234775 0.10611991 -0.07186648 -0.053533684 0.24221681 0.1560784 0.09127548 -0.015228104
-0.0034199054 -0.0064499318 -0.009449546 0.00022356582 -0.015981521 -0.038720258 -0.04237858 0.28716487
-0.04833975 -0.11125449 0.03235416 -0.078341335 -0.011912812 0.230231 -0.0437675 -0.08971297
0.3563136 -0.0004210978 0.9717509 0.95344615 0.9328084 0.9978117 0.94073516 0.96488935
0.85764366 0.9289578 0.9414864 0.8687874 0.9360047 0.9345643 0.968583 0.9582597
0.79874814 0.9449819 0.8935532 0.9483791 1.0151184 0.94515145 0.9949558 0.9589965
0.9729661 0.94387466 0.9712802 0.8525166 0.9895749 0.92754567 0.8207006 0.9372518
0.97370344 0.94635093 0.9529206 0.97666454 0.9156143 0.99576443 0.9548439 0.9376466
0.90837055 1.0046898 0.94244164 0.94234985 0.97392267 0.9202058 0.9870383 0.95994866
0.96875393 0.85503095 0.84913975 0.9623583 -0.012170718 0.029135892 0.020786325 0.026257785
-0.0090641035 0.0116869705 -0.019854411 -0.021837087 0.019886388 -0.038488433 0.022819841 0.006747056
-0.03348666 -0.01581361 -0.009624777 0.066845655 -0.0018465588 0.019843007 0.016877964 -0.035564367
-0.014263488 0.015676565 0.030302973 0.04642542 -0.07413014 -0.00096944167 0.016452271 -0.013894336
0.0016515093 0.015042002 0.039718863 0.05886339 -0.0034120665 -0.024030022 0.05891101 -0.06462851
0.0080204215 0.038371906 -0.011964746 -0.058329176 -0.045079518 0.03571878 -0.07070524 0.014866031
-0.02524918 -0.0015259865 0.026478551 0.039115153 0.0026120795 -0.04514565 -0.0012454732 0.0050790436
-0.05977772 0.03738677 0.05829558 -0.029897459 0.17136297 0.14532977 -0.030411778 0.22621116
0.18868601 0.17689192 -0.064445354 0.35725987 0.25236148 0.014366783 0.14730504 0.06739772
0.22278939 -0.05847384 0.20547032 0.14528133 -0.023861941 -0.028638974 0.040286876 0.094821855
-0.07828229 -0.05383036 0.24556804 0.15852892 0.071536 -0.035049267 -0.0048612608 0.0044243
-0.0072685103 0.00865731 -0.029325588 -0.04032457 -0.04202745 0.27910855 -0.04906618 -0.11208679
0.030542152 -0.079944104 -0.014795459 0.22680354 -0.04597696 -0.0815512 0.32172215 0.012732536

while/MatMul_1 f4 [200, 50]
00000000: 81c1 34be ccd3 ff3c 6caa 1dbe 41cd aa3d
00000010: a3d9 a6bd 207a 2abd e7fb 803d 4391 6f3e
00000020: 8c8c 023e e050 0fbe c588 2f3e 8d71 0a3e
00000030: 4a70 dd3d 09c8 25be 6b5a a8bd de81 09bd
00000040: b6a0 673e fae6 59be dd5e 2cbe 6bb2 dd3c
00000050: 8eb2 27be f354 203e 0cc6 fc3b 4cf2 b239
00000060: 3b7c 0a3e 4228 3bbe 1320 edbd 7dee b43c
00000070: bbcf 1fbe 1c62 ab3c e8ce 1cbd 4148 acbd
00000080: 5d87 8a3c 1eb8 973d 5327 073c 2f53 f03c
00000090: d109 afbd ed9b bd3d 78b4 e83d 9afd e0bd
000000a0: 49ff b23d 9880 a7bd 12d3 bfbc 1bec 65bd
000000b0: 2302 33bd 570c 4cbe bb3e b5bd f77a 52be
000000c0: 5406 60be 56f2 613e 834a 113e 6a5d c93d
000000d0: 9714 bf3d c358 afbd 168d aa3d 578e abbb
000000e0: 3db9 903c f558 4e3d 67fc ae3d 85ae 1d3e
000000f0: 4c97 93bd 4bd2 253e c363 2b3d e9fb 0a3c
00000100: 9f6d 563e cc44 083c 54d1 15be d6d9 4bbd
00000110: fdb9 14ba 6779 b03b 4610 643d 3891 9dbd
00000120: b87b 7b3c 4801 403d 23d9 ef3c d318 4e3d
00000130: db24 c2bd 399d 55bd c768 d23d 2af2 11be
00000140: 65ac 58bd c5a6 443d 21ac f73d f74e e9bd
00000150: 3d65 1ebe 282e 883d c435 d9bd c2b2 5abc
00000160: a740 19bd 0c32 4d3e 6230 6c3d 5176 8ebc
00000170: 777a 07be 6b2e 693d 53ff bf3d a1b1 4d3e
00000180: d65e 40bc 7f0a 2ebb 1fe1 5f3a d032 66bd
00000190: 95a6 a13d c577 753c 6b48 303d e95d 58be
000001a0: f2ad a43d 32d2 b6bc 15cf 00be 9084 f43d
000001b0: b8fc 833d df4a cc3d 406f 06be 1e9a 9e3d
000001c0: a8eb e33c d4ee cdbd 3472 8e3e 44c7 66bd
000001d0: 922f 24bd 5614 583d 3d6d bc3d 68d0 b8bd
000001e0: fd68 49be 522c 8b3d 7505 c23d 4c75 cd3c
000001f0: 5bc4 b6bd 5154 0f3e a1e1 1e3e 6c0e fbbd
00000200: 52a1 193e 73b4 54bd 6015 443c 603b 763c
00000210: 3153 5fbd 20f0 b83d f92b fbbd 7a70 a83d
00000220: e50c a2bd c9c0 0f3e c4f3 023e 6895 bd3d
00000230: d102 0abe b578 753e 9b6d 213d 1dc7 5c3d
00000240: 307a 173e cda9 77bd 7865 d03d ec94 2bbc
00000250: e4e5 b33d 123f a8bd a02f d6bd 327e f0bc
00000260: d054 f73c 1738 06be e718 04be cf54 acbd
00000270: c2a1 483e 2ebf 803d dadf 343c 40dc 9ebd
00000280: 5ad7 ab3d 581c 8e3e a57e 1b3d d5e0 92bd
00000290: a20d b1bd 9555 33bd 0bfd 043d aef7 103d
000002a0: 4542 143d 09f4 dfbc 4e1a ccbd a1e9 54be
000002b0: 117d f9bc e293 17be dc91 663e 0355 97bb
000002c0: 3ed4 d9bd fff1 f13c 9d84 96bd de43 03bd
000002d0: b071 843d 1950 a1bd c35c a4bd cbd7 1b3d
000002e0: 6325 dabd 1456 b5bd 7aac 93bc 600d d93c
000002f0: 9102 913c 48b1 0b3c 6c43 13bd f192 ccbd
00000300: 316f 87bd d5f5 38bc 35bc 1f3d 94ca d2bc
00000310: 97ed ffbb 7ce2 f5bd a8b5 85be 58c8 97be
00000320: f95f 5bbc 87e7 8c3d 0d73 bd3d b1d7 00be
00000330: 483c d2bc 6394 babd 2123 febd 0958 dcbd
00000340: 109a 17be 43b2 953c 5a48 f9bd 720a 77bd
00000350: d093 673d 5bfa 56be 5dd4 7f3d 84fe e1bd
00000360: ff67 813e 8031 f2bd e387 b3bd e529 383d
00000370: 595f 8fbe 9b7f 3c3e e0ae 26be a8da c43c
00000380: dff3 5dbd 484a 40bd a2b7 ddbd 9d01 9f3c
00000390: 8376 863d 9c36 6fbd 6626 143d 564a 1dbe
000003a0: 332c 85bd 2e1d 0e3e 17b2 693b c638 c83d
000003b0: 8e73 f2bd 84d0 8bbd a11d 1bbb b9ad 11bb
000003c0: b4b6 98bc a029 6fbd cc1e 2b3e 19e5 263e
000003d0: 0bae a23d 780f 2cbe 5644 82bd 6758 f73c
000003e0: 003a 523e 9cc4 ef3c f54d 303d 3618 f63c
000003f0: 37db d23d a7b5 36be 3f68 d7bd 6055 073d
-0.17651941 0.031228922 -0.15397042 0.0833993 -0.0814698 -0.041620374 0.062980466 0.23395257
0.12748927 -0.13995695 0.17142017 0.13519879 0.10812433 -0.16189589 -0.08220371 -0.033571117
0.226199 -0.21279517 -0.16833062 0.027062615 -0.16376707 0.15657406 0.0077140387 0.0003413133
0.13523953 -0.18277076 -0.11578383 0.022086376 -0.15606587 0.020920806 -0.03828326 -0.08412219
0.01691025 0.074081644 0.008249122 0.02933654 -0.08546794 0.09258256 0.11362547 -0.10985871
0.08740098 -0.08178824 -0.023416076 -0.05613337 -0.04370321 -0.19926582 -0.088498555 -0.2055472
-0.21877414 0.220651 0.1418858 0.098322704 0.09330099 -0.08561852 0.08327691 -0.005235474
0.017666453 0.050377805 0.08544236 0.15398605 -0.07206592 0.16193502 0.041843187 0.008482912
0.20940255 0.008317184 -0.14630634 -0.04976829 -0.00056734664 0.005385566 0.055679582 -0.07693714
0.015349321 0.046876222 0.029278344 0.050316643 -0.09479686 -0.052151892 0.10273891 -0.14252535
-0.052898783 0.048010606 0.12093378 -0.113920145 -0.15468307 0.066494286 -0.10605958 -0.013348283
-0.037415173 0.20038623 0.05766333 -0.017390402 -0.1323031 0.056929033 0.09374871 0.20087291
-0.011741361 -0.002655655 0.00085403206 -0.056200802 0.07893101 0.014982169 0.043037813 -0.21129574
0.0804099 -0.022317026 -0.12578996 0.11939347 0.06444687 0.09975218 -0.13128376 0.07744239
0.02782233 -0.100553185 0.27821505 -0.05634238 -0.04008443 0.05275377 0.09200523 -0.09024125
-0.19668956 0.06795563 0.09473697 0.025080346 -0.089241706 0.13997008 0.15515758 -0.1225861
0.15002945 -0.051929902 0.011967987 0.015028805 -0.054522697 0.09030175 -0.122642465 0.08224578
-0.07912616 0.14038385 0.12788302 0.092570126 -0.13477637 0.23971827 0.03941117 0.053900827
0.14792705 -0.06046467 0.10175604 -0.010472517 0.087840825 -0.08215155 -0.104583025 -0.02935705
0.030191809 -0.13107334 -0.12900124 -0.084146135 0.19592956 0.06286465 0.0110396985 -0.07756853
0.083906844 0.27756 0.037962575 -0.071717896 -0.086451784 -0.04378279 0.032467883 0.035392456
0.036196012 -0.027338045 -0.09965955 -0.20792247 -0.030455144 -0.14802507 0.22516578 -0.0046182885
-0.10636185 0.029534338 -0.07349513 -0.032047145 0.06466997 -0.078766055 -0.080255054 0.038047593
-0.10651662 -0.08854309 -0.01802658 0.026495636 0.01770142 0.008526154 -0.03595297 -0.09988964
-0.06613005 -0.01128908 0.038997848 -0.025731362 -0.0078103053 -0.12006089 -0.26115155 -0.29645038
-0.013389581 0.06880098 0.0925046 -0.1258228 -0.02566351 -0.09110334 -0.12409044 -0.10758979
-0.14804864 0.018273478 -0.12172003 -0.060312696 0.05653745 -0.2099394 0.062458385 -0.11034873
0.25274655 -0.118258476 -0.08766153 0.04496183 -0.28002432 0.18408053 -0.16277647 0.024030045
-0.05418765 -0.04694584 -0.10826041 0.019409949 0.06565573 -0.05840169 0.036169432 -0.15360388
-0.06502571 0.13878319 0.0035659128 0.09776454 -0.118384466 -0.068268806 -0.0023668783 -0.002222879
-0.018641807 -0.058389306 0.16710967 0.16298331 0.07943352 -0.16802776 -0.0636069 0.03019352
0.20529938 0.029268555 0.043043096 0.030040842 0.10295718 -0.17842732 -0.1051793 0.033040404

while/MatMul f4 [200, 3]
00000000: 0df8 543d 0002 71bc 01fe 1fbf 0e66 483d
00000010: d31a 7c3e 119b 2a3e 841e 8abe 6f83 333e
00000020: 8a39 27be ff24 203e fcbc c8bc 8ef0 0bbf
00000030: 93ec d5bc dd18 bc3d 5de6 1a3f f236 36be
00000040: 85aa 283e 7334 48bd 9a8c 613e edd1 423e
00000050: 45c6 11bd d0f6 713e 7939 b33e 4b1e 8a3d
00000060: d5be a7bc 8a2f c33d 1aeb b6bd 02f3 3b3e
00000070: faa3 8b3d 02ec 26be b7a5 883e 85ff 2f3e
00000080: b529 203e 3534 6c3e 8e5c 1d3e a40f 8b3c
00000090: e743 eb39 94ab 3cbe ea36 01bd ae1d c33e
000000a0: 3a69 ca3e bdb8 a33e 573d 863e 8d4d d83d
000000b0: 0158 97be 1c97 97bc cc2a 5ebd 5314 05be
000000c0: 7683 6dbd f3b6 723e 55c9 103d 87c1 333b
000000d0: 326e 863e 22cc 973e 682d f83d f77b 733e
000000e0: 7284 913e 497a 1fbc b2a5 2ebe 9c0f 0bbe
000000f0: c699 b93e a262 c03e 72d8 fe3d f308 973e
00000100: 6dd1 f03d a672 503d a576 5b3d 4453 a3ba
00000110: 98c9 f53c 56d4 743d 775d 0b3b f422 59bd
00000120: 8609 723c 8fe5 6f3e c7b1 923d ac23 c8bd
00000130: bef6 a93c edd2 b33e 7975 3dbe 3376 853d
00000140: 9c65 913e 5ceb aa3d c420 84bd ec2e 683e
00000150: 3cfe df3d 05d8 2a3e 33f2 88be 1fec 253e
00000160: dff8 473c 6ae9 02bd 6b59 63bd 4a11 123e
00000170: 8bd2 66bd 773d e33d 7f86 023d 9305 d8bd
00000180: 7ec4 783d d8b2 173e 3057 d1bd 18fb 36be
00000190: 0df1 343e ebd5 983e 2cc9 ea3c 77a6 43bd
000001a0: 6957 edbd b55c 44be 8e0c da3c f122 e33e
000001b0: 4f26 133e 2b53 8dbc 57ba 24be 21a8 0b3e
000001c0: e48b bfbd 22fc 0cbe 2be4 d0bc c383 d73c
000001d0: 75e6 a43e 3e83 cb3e 408e 7a3b 58f0 0dbe
000001e0: 9a7f 69be 0f1e 23bd 912c 9cbd c302 5cbe
000001f0: 6f6f fbbc aa8b 81bd 7a6c 56bd b316 c0bc
00000200: 1bce 043e 01c6 1f3d 4236 8c3c 11f7 16be
00000210: af81 a53c 163e 853d 7705 093d bfbe a73e
00000220: e386 743e 7c6e 21be 6732 033e e7db 96b8
00000230: 172d 873d d59e d7bd 8a00 c53d fcdf 9f3e
00000240: 896f f93e 07e3 3d3e 65e5 c1bd af01 b0be
00000250: 7a6f a03d c97d da3e a82c 8ebd 45bf 45be
00000260: a8a9 97be c21d 853d 6c7d d23c ed8c 2ebe
00000270: 450a 28be 7716 b93d f04c 6abe e42a ab3c
00000280: 31bb 4b3d 3f5b 41be be70 1ebe 7088 0abe
00000290: 1aa4 a3be a5ae 0c3d 02fe e53b ca39 b03d
000002a0: 4d35 3ebe 54ed 4ebc cc4b 43bd 5955 c93b
000002b0: 0b30 a0bd 3b57 f6bd f914 483d c633 0ebc
000002c0: cee3 a73a d160 88be 641c 09be 982e 16bf
000002d0: cf80 0f3d 8488 00bb 343a c1be 5494 71be
000002e0: cd69 44bb 2ee8 5bbe 8a41 d1bc 56e9 05be
000002f0: 7efc 32be 14d4 6d3d e300 dbbd 9ed9 933c
00000300: 0e7b c7bd abc1 a9be 0c48 ddbe fde3 7a3d
00000310: 93f0 2fbe 89e0 0dbe ba67 2dbd ea53 a7be
00000320: 4f45 4bbe 4776 29bd caca 04be 24a1 33bd
00000330: 4a0c 23be df05 a33e cf68 9a3e b5c9 a83d
00000340: 525e 083d ec57 1cbe 7068 b23d fee4 9bbe
00000350: 2280 3f3e 75b8 1dbd 68e5 0ebd 4db1 6abe
00000360: a52f 08be 621f 46be 4ea8 74be 99a1 29be
00000370: 2a4e 693d 316a 8ebe b3e3 b93d 0ffd b73d
00000380: 4e7f 0a3d 04dc a83c 2697 74be 3a6f 78be
00000390: 275d 233c cd78 80bd 76dd 8e3e 9a77 183d
000003a0: 86f9 c2bd 03e1 a1bb 3c74 9bbe 3523 e9be
000003b0: 63d1 bcbe 1654 bd3d 4509 b1bd 3fcf d8bd
000003c0: b4f0 a73d c95f bdbd f617 f4bd 3a1f 48be
000003d0: ff0d 84bd d454 42be c4f2 17bc 1b1f adbd
000003e0: 864f b93d f203 913d a450 2abe ddcd 293e
000003f0: fc08 b6bd 82d0 8c3d 8eae bc3d 9970 093e
0.051994372 -0.0147099495 -0.62496954 0.048925452 0.24619608 0.16660716 -0.26976407 0.17530607
-0.16330543 0.15639113 -0.024504177 -0.5466393 -0.026113784 0.0918443 0.60507756 -0.17794397
0.16471298 -0.048878144 0.22026291 0.19025393 -0.035589475 0.23629308 0.35004786 0.06744059
-0.020476738 0.09530552 -0.08931561 0.18354419 0.068183854 -0.16300967 0.2668893 0.17187317
0.1564091 0.2306679 0.15367338 0.016975231 0.00044873284 -0.18424827 -0.03154651 0.3810858
0.39533406 0.31976882 0.26218674 0.10561667 -0.2955933 -0.018504672 -0.054240033 -0.12996034
-0.0579867 0.23702602 0.035348255 0.0027428584 0.26255947 0.29647928 0.121180356 0.23777758
0.2842136 -0.009733745 -0.17055395 -0.13580173 0.36250132 0.3757525 0.124436274 0.29499015
0.11758695 0.050890587 0.053579945 -0.0012460728 0.030003354 0.05977281 0.0021265426 -0.05301185
0.014772778 0.23427413 0.071628146 -0.09772429 0.020747539 0.3512186 -0.18501844 0.06516685
0.28397834 0.083456725 -0.06451562 0.2267415 0.10937163 0.16683967 -0.26747283 0.16203354
0.012205332 -0.031960882 -0.055505197 0.14264408 -0.056353133 0.11095708 0.031866547 -0.10547938
0.060734265 0.14814317 -0.10221708 -0.17869222 0.17670079 0.29850706 0.02866038 -0.047766175
-0.11588938 -0.1917599 0.026617315 0.44362596 0.14370082 -0.017251572 -0.16086708 0.13638355
-0.09352854 -0.13768056 -0.025499424 0.026307946 0.32207075 0.39748567 0.003823176 -0.13861215
-0.22802582 -0.039823588 -0.07625688 -0.21485429 -0.030692784 -0.06325467 -0.052349545 -0.023448324
0.12969248 0.03900719 0.017115716 -0.14742686 0.02020344 0.065059826 0.033452477 0.32762715
0.2387958 -0.15764803 0.12812196 -7.1935174e-05 0.06600397 -0.10528342 0.096192434 0.31225574
0.48717907 0.18543635 -0.09467582 -0.34376284 0.078337625 0.4267409 -0.06942111 -0.19311245
-0.29621625 0.064998165 0.025694571 -0.17045946 -0.16410168 0.09037488 -0.22880912 0.020894475
0.049739067 -0.18882464 -0.15472695 -0.1352861 -0.31961137 0.03434624 0.0070188055 0.086047724
-0.1857502 -0.012629826 -0.047679707 0.0061442074 -0.078216635 -0.12028357 0.048848126 -0.008679336
0.001280898 -0.26636365 -0.13389736 -0.58664846 0.03503495 -0.001961262 -0.37739718 -0.23591739
-0.0029970289 -0.21475288 -0.025543947 -0.13077292 -0.1747913 0.05806358 -0.106935285 0.018048104
-0.09740268 -0.3315557 -0.4321903 0.061252583 -0.17181616 -0.13855185 -0.04233525 -0.3268121
-0.19850658 -0.041372564 -0.12967983 -0.043854848 -0.15922657 0.31840417 0.30158088 0.082415976
0.033293076 -0.15267915 0.08711326 -0.30448145 0.18701223 -0.03850599 -0.034886748 -0.22919197
-0.13299425 -0.19347909 -0.23892328 -0.16565551 0.05695931 -0.27815393 0.09076633 0.08983814
0.033812813 0.020612724 -0.23885784 -0.2426118 0.00997094 -0.06273041 0.27903336 0.037223436
-0.09520249 -0.0049401536 -0.30362117 -0.45534673 -0.368785 0.09244554 -0.08644346 -0.10586404
0.08200207 -0.09246785 -0.11918633 -0.19543162 -0.06447982 -0.18977672 -0.009274188 -0.084531985
0.09048371 0.07080831 -0.16632324 0.16582437 -0.088884324 0.06875707 0.09212981 0.13421859

sequential_20/lstm_41/Read_2/ReadVariableOp1 f4 [200]
00000000: ddc7 36bd e315 793e 5b52 7dbd f7a1 85bd
00000010: 46a2 63bd be09 95bd d60a 2cbd 176a 85bd
00000020: 7d4f abbd 0d8a 21be 0ff7 eebc ed06 533e
00000030: 569e 0ebd 2663 92bd 3e1a 8dbc 5050 8abc
00000040: d926 603e 057c 3dbd 5568 35bb d802 e13b
00000050: d6e6 993e 961a 4e3e 38f1 ffbc 6eb1 34bd
00000060: b495 0b3e a827 c9bc 516c a7bd 6f93 06bd
00000070: ea49 a7bc 7ed7 11bd 597a 01be 65e0 13be
00000080: 17c5 31bd 8344 4abd c89d 65bd 6fdd 56bd
00000090: 1d73 56bb e65d ccbd 4b87 2cbd 827f f4bd
000000a0: 0707 06bc dd8a c13c 40b1 0a3d b0d4 43bd
000000b0: 8b69 ffbc 96a2 6c3d 8da0 3ebd 420a 743e
000000c0: 7103 12bd dac6 aabc 2108 713f ff2c 4a3f
000000d0: a076 753f 50b3 663f 7abf 6c3f 1746 763f
000000e0: 6828 7d3f 1583 713f 0f57 6d3f cfd9 543f
000000f0: a71f 793f 41ee 563f f18b 6c3f 8700 793f
00000100: 9373 793f 06fb 6a3f 1319 783f 2bf6 6e3f
00000110: a164 6f3f fb0e 5d3f 472a 593f 9d31 513f
00000120: 39fc 6f3f 4d51 703f d968 673f 3278 5a3f
00000130: 71aa 753f fba9 7a3f 76a5 7b3f 3d84 763f
00000140: 439c 5f3f 083f 623f b1e2 703f ede1 6d3f
00000150: d805 783f 185a 6a3f 00dc 713f cda7 6b3f
00000160: e9ad 5d3f e3bb 723f f0ea 6b3f a947 6f3f
00000170: fabf 623f ee1c 743f be74 763f 8966 673f
00000180: 9ff3 773f fa8b 4a3f 2032 7c3f 49ea 7d3f
00000190: 9b7b a6bc c89a 4aba 8e49 0a3d a998 8bbb
000001a0: 362b d1bc adc7 6a3c 07a6 1e3c b754 733c
000001b0: cfe4 8fbc ed7f 7ebc 33af aebc ecd1 6e3c
000001c0: 3fe1 293a b9ad 2ebd 0f93 313d 70ee fe3c
000001d0: 6ef0 443d e3bd 94bc f4db 8a3c 5aa5 023c
000001e0: e794 cf3c 8450 1ebd 19b8 c83c 6748 b73c
000001f0: 9cfb 823c d0eb fabb 314c 01bc 6e6c 0c3d
00000200: f963 643d ec38 e4bc db8c 5f3c 290c a33c
00000210: 72ac a4bb 364c a43c 2e2a 4e3c 1414 04bc
00000220: 7af2 2b3d 8741 093c 2b87 e1bc 101c c5bc
00000230: cda3 253c 36da 503b 4c84 3dbb 60be bebc
00000240: 8bc9 27ba 483b 11bc 3009 2bbd a719 45bc
00000250: 564e cebb c639 3e3d a2d9 3abd 2887 613e
00000260: d94a 84bd 76f5 7ebd c584 7ebd fa81 9fbd
00000270: d2ae 44bd e572 8cbd 829e aabd 1a92 24be
00000280: 7a8b dbbc a4ad 403e 70c9 1abd 2a5e 97bd
00000290: f1ca c1bc f325 67bc b7eb 543e 249d 2ebd
000002a0: 7897 8abc 3c1c 3c38 e9d7 a53e 516a 4d3e
000002b0: 4f82 51bd 9a77 6abd 7e43 e43d 8a14 68bd
000002c0: be4e 98bd a035 36bd 5fde fcbc 1573 3dbd
000002d0: 4e2c ffbd a211 16be aa89 4bbd 5617 85bd
000002e0: b1dd 83bd 7902 85bd 44e6 03bc 92f1 dabd
000002f0: aaf1 2cbd 2406 11be 81c3 c5bb 58a6 e73b
00000300: 938f b9bb 007c 64bd 45c1 1abd 18c0 563d
00000310: fb67 63bd e5fb 693e 9327 21bd af60 d0bc
-0.0446242 0.24324755 -0.06184612 -0.06525033 -0.055574678 -0.07277249 -0.04200252 -0.06514376
-0.083647706 -0.15775318 -0.029170541 0.2060811 -0.03481897 -0.07147817 -0.017224427 -0.016884
0.21889819 -0.046260852 -0.0027680595 0.006866794 0.30058926 0.20127329 -0.031242952 -0.044114523
0.13631326 -0.024555042 -0.081749566 -0.032855447 -0.020420987 -0.0356059 -0.12644328 -0.14441068
-0.04340085 -0.049381744 -0.056058675 -0.05245727 -0.0032722421 -0.09978847 -0.042121213 -0.11938383
-0.008180386 0.023625785 0.033860445 -0.047810256 -0.031178256 0.05777224 -0.046539832 0.23832038
-0.035647813 -0.020846773 0.9415303 0.7897491 0.9588413 0.9011736 0.9247967 0.962007
0.9888978 0.9434064 0.92710966 0.8314485 0.9731392 0.83957297 0.92401034 0.9726643
0.9744198 0.9178928 0.9691326 0.9334437 0.9351292 0.86350983 0.84830135 0.8171633
0.93744236 0.93874055 0.9039436 0.85339653 0.959632 0.9791562 0.9829935 0.9629553
0.8734781 0.8837743 0.94095904 0.9292286 0.96883917 0.9154372 0.9447632 0.9205292
0.8659349 0.9481794 0.9215536 0.9346872 0.88574183 0.95356643 0.96271884 0.9039083
0.9685611 0.7911984 0.98513985 0.99185616 -0.020322612 -0.00077287527 0.033761553 -0.004260142
-0.0255333 0.014329833 0.009683139 0.014851741 -0.01756516 -0.01553343 -0.021323776 0.014576416
0.00064804027 -0.042646144 0.043353137 0.031119555 0.048080854 -0.018156951 0.016950585 0.007973993
0.025339557 -0.038651004 0.024501847 0.022373391 0.015989117 -0.0076575056 -0.007891701 0.034283094
0.055759404 -0.027859174 0.013644422 0.01990326 -0.00502544 0.020055871 0.012583299 -0.008061428
0.04197929 0.008377439 -0.027530273 -0.024061233 0.010109854 0.0031868345 -0.0028917966 -0.023284137
-0.00064005767 -0.008864231 -0.04175681 -0.012030042 -0.0062959595 0.046441816 -0.045617707 0.22024214
-0.064595886 -0.06224581 -0.062138338 -0.07788463 -0.048018284 -0.06857852 -0.08331014 -0.16071358
-0.026799906 0.18816239 -0.037789762 -0.07391007 -0.02365634 -0.014108169 0.20793043 -0.04263033
-0.016917929 4.484899e-05 0.3239129 0.20060088 -0.051149663 -0.057242967 0.111456856 -0.056660213
-0.07436894 -0.044484735 -0.030867754 -0.04625233 -0.12459622 -0.14655164 -0.049691834 -0.064985916
-0.06438769 -0.06494612 -0.008050505 -0.10690607 -0.042222656 -0.14162499 -0.006035269 0.0070693903
-0.0056628673 -0.055782318 -0.037781972 0.05242929 -0.055519085 0.22849996 -0.03934438 -0.025436727

while/MatMul_12 f4 [200, 50]
00000000: 1adf ea3d 6947 3bbd 2098 bbbc 566c 2fbd
00000010: 17d2 063e 6a6e febb fa38 4fbe a10f ddbd
00000020: 8cfb d43d 6f33 fc3d f56e 7a3d 766b 8d3d
00000030: acc8 b7bd 338a 213c e593 9cbc 1f64 3c3d
00000040: 2560 2cbc 10af 28bc b147 fcbd 0630 e6bc
00000050: 3c9e 60be e2eb 6cbd 2217 06be 359d ecbd
00000060: ceea 11bd 22a9 7dbc 6016 0f3e 2405 6abd
00000070: be74 c03d 1f98 ab3d f334 7a3d 2e4e 983d
00000080: 4627 5ebc 4fd0 90be 2003 17be 1db1 b93c
00000090: b8c9 abbc 81c2 3fbd c7ed bc3d 7579 8b3d
000000a0: 266e 173d 6a09 45bd a401 373e 6737 e23d
000000b0: f73d a8bc 1630 943c 7f92 643d b1ef ecbd
000000c0: 3d43 a53d a33f 11be 20ba 02be 913e f13d
000000d0: f4f9 053e 4974 dabd 33fb 76be 42da 8d3e
000000e0: 803b 3e3d a462 0b3e c8fc 26bd c374 ca3e
000000f0: 8b20 bcbe 1fac 95bc cfbe e83d 275f 49bd
00000100: eb0b 6e3e 065a 433e 9c69 e0bd 08e6 82be
00000110: a808 6c3e 54ad 21bc 8f61 a53e f129 1f3d
00000120: 96a2 10be e350 c73e 5b57 35be 8055 32be
00000130: 8722 b9be 54b7 823e 381e ad3d 600e 33bd
00000140: 7100 263d a705 95bc c20e 05be 6e46 b03e
00000150: 25e6 e33e 2a03 68be c61f 813e b227 1bbe
00000160: 30bb 1e3d 5120 70be 7f72 07be 716a 363e
00000170: c3a0 3dbe b1bb 9abe a9ef 053e da26 d43d
00000180: c424 27be ffd3 d33d 82f8 89bd 3a23 733e
00000190: e0a3 833d 61e1 aabd c7c0 22be 0b9e 043d
000001a0: 50b1 1c3e d730 dcbd 36ab a0bd 019e 433d
000001b0: 373e 0c3e 8e1b e0bd f974 1e3d 9ed1 763d
000001c0: 3fec 0dbe 766c 21bc 6151 19be fc9e 983d
000001d0: 7f12 12be dba4 9c3d 2451 d33b 4a2b eb3d
000001e0: b9a8 9bbe 0acf 9f3c cbb9 b53c e57f 2ebe
000001f0: c4a1 1a3e 2138 95bd 36e5 cf3d 571a f43c
00000200: 35a6 0cbe dc06 413e 9398 3d3d e4d1 e73c
00000210: 131b b7bd 141a 38be 5fc2 6fbd cf9a 943d
00000220: 7cd7 aebd 2b84 a43d 65ed 77bd 6ee3 a2bb
00000230: e0d7 e2bc 5401 ef3c 2342 84bc 9e63 623d
00000240: 8c96 a03d 9cdc b33d 93e5 e03d ac8d 40bd
00000250: b23c 143e 10c3 f5bd c6f7 00bd 6b7e 333e
00000260: ba1e 753d 94ec 353d 4cd7 d7bc 6828 73bd
00000270: 5dd1 abbc aea3 53be ac6b 863c 865c f63d
00000280: 01f1 243c 76b7 26bd 0f69 26bd 5fcb 843e
00000290: 3f07 52be 8fdd 97bd 442d 1abe 2c11 4b3d
000002a0: 86fd 05bd bf06 253e ed3f b43d 82df 8a3c
000002b0: e7b3 613d e4d0 fd3d 795f 9f3d 398f 1fbe
000002c0: a116 223e 6cfb 1bbe c6ee 96bc 457f aabb
000002d0: 39d2 18be a9dc 3e3d 33bb c43c f7cb 1bbe
000002e0: 0c66 a83d 7702 10bd 1ab5 30be dd00 6f3c
000002f0: b174 99bc 1c9e b53d a742 97bd 7000 bf3d
00000300: 9ebb 55bd 5099 b63c 7253 323e 2a14 90ba
00000310: 7e77 c63d 899f d13c 7bd0 563c ddd6 a83c
00000320: b224 153e a359 cbbd 4c30 76bd 765a 21bc
00000330: b23d 1f3e 24f9 09be cbac d9bd 691f 7c3c
00000340: d2c1 813d 2a06 e63d 4cd7 bbbd d649 b43d
00000350: 1e6e 00be aa7a eb3c f820 35be f908 2ebc
00000360: e610 6fbe ca31 d43d e83a 573e ad1b e33d
00000370: 3c46 d73b f750 5a3d 4f81 bf3c e3f0 9bbd
00000380: f94d 26bd 4526 90bb 48cb 9d3d a53c 56bd
00000390: 6b07 ef3d 6e5e 633c 36da bcbd caa1 24be
000003a0: 7e16 cfbd e33d 00bd e8c2 63bd e5bc 213e
000003b0: c3b4 01be 8860 133d 58a9 ef3d d599 4cbd
000003c0: 7d00 d23c dda9 58bd 1de1 603e 875a 883d
000003d0: 8096 273b 0166 2ebe e66a 20bd dfd5 e2bb
000003e0: a09b 513e ad98 9d3d 56ad 15bd 2e55 9cbe
000003f0: d128 05be 9ab5 0e3e ed07 8e3e 94a4 353d
0.114683345 -0.0457224 -0.022899687 -0.042827927 0.1316608 -0.007764627 -0.20236579 -0.107939966
0.10399541 0.12314498 0.061140973 0.06905262 -0.08973822 0.009859609 -0.01911349 0.04599392
-0.0105209695 -0.010295644 -0.123183616 -0.028099071 -0.21935362 -0.057842143 -0.13094762 -0.11553422
-0.035624318 -0.015482219 0.13973379 -0.05713381 0.09397267 0.08378624 0.061085653 0.074367866
-0.013559168 -0.28283927 -0.14747286 0.022667462 -0.02097021 -0.046816353 0.0922504 0.068102755
0.03697028 -0.04810468 0.1787172 0.110457234 -0.02053736 0.018089335 0.055803772 -0.11569155
0.08069465 -0.14184432 -0.12766314 0.11779512 0.13083631 -0.10666711 -0.24119262 0.2770558
0.046443462 0.13611847 -0.040768415 0.39542207 -0.36743578 -0.01827055 0.11364519 -0.04916301
0.23246734 0.1907731 -0.109576434 -0.25566125 0.23050177 -0.009867985 0.32300994 0.038858358
-0.14124522 0.389289 -0.17709105 -0.17415428 -0.36159155 0.25530493 0.084530294 -0.04371488
0.040527765 -0.018191172 -0.12993911 0.34428734 0.44511524 -0.22657457 0.25219554 -0.15151861
0.038752735 -0.23449828 -0.1322727 0.17814042 -0.18518357 -0.30221322 0.13079704 0.10358973
-0.16322619 0.103431694 -0.06736852 0.23743907 0.06427741 -0.08343769 -0.15893851 0.032377284
0.15302014 -0.10751503 -0.07845156 0.047758106 0.13695608 -0.10942756 0.038685773 0.0602585
-0.13859652 -0.009852519 -0.1497245 0.07452199 -0.14264868 0.07648631 0.0064488817 0.11482866
-0.30402163 0.019507904 0.02218332 -0.17040975 0.15100771 -0.07286096 0.101511404 0.029797716
-0.13735278 0.18850273 0.046288084 0.028298326 -0.08940711 -0.17978698 -0.058534976 0.0725609
-0.08537194 0.080330215 -0.06052913 -0.0049709594 -0.027690828 0.029175438 -0.016144818 0.055270784
0.078412145 0.08782312 0.10981288 -0.04701011 0.14476278 -0.12000096 -0.031486295 0.17528693
0.059843756 0.04441507 -0.026347779 -0.059364706 -0.020973856 -0.20667908 0.016408764 0.12029366
0.010067225 -0.040702306 -0.040627535 0.2593641 -0.20510577 -0.07415306 -0.1505633 0.049576923
-0.032712482 0.16115855 0.088012554 0.01695228 0.05510321 0.12393358 0.07781882 -0.15581979
0.15828945 -0.15232629 -0.018424403 -0.00520316 -0.14923944 0.046597157 0.024015045 -0.15214525
0.08222589 -0.0351586 -0.17256585 0.014587608 -0.0187324 0.088680476 -0.0738576 0.09326255
-0.05218088 0.022289902 0.17414644 -0.0010992337 0.0969076 0.025588768 0.013111229 0.020610267
0.1456478 -0.09929206 -0.060104653 -0.009848228 0.15550879 -0.13473946 -0.10628661 0.015388348
0.063357964 0.112316445 -0.09171924 0.088031456 -0.12542006 0.028745014 -0.17688358 -0.010622256
-0.2334629 0.10361059 0.21018565 0.11089263 0.006569652 0.05329987 0.023377089 -0.07614305
-0.040601704 -0.0043990933 0.077047884 -0.05230393 0.11671337 0.013877494 -0.09221308 -0.16077343
-0.10111712 -0.03130902 -0.0556058 0.15794714 -0.12666611 0.03598073 0.11702222 -0.049951393
0.025634998 -0.05289637 0.21960874 0.06657892 0.0025571883 -0.17031099 -0.039164446 -0.006922468
0.20469522 0.07695136 -0.03654226 -0.30533737 -0.13003851 0.13936463 0.27740422 0.044346407
