app/src/main/assets/rekomendasi_tanaman.tflite (tflite, 65960 bytes, 10 tensors)

sequential_10/dense_47/BiasAdd/ReadVariableOp f4 [22]
0	0xbd8d64eb	-0.06904014
1	0x3d137217	0.035997476
2	0xbcca10a2	-0.024666134
3	0x3cff58fb	0.031170359
4	0x3dd1abc0	0.10237837
5	0x3d83251d	0.06403563
6	0xbe89994a	-0.26874763
7	0xbd8eb9f7	-0.06969064
8	0x3de01873	0.10942163
9	0xbd059a4c	-0.032617852
10	0x3ddaf08a	0.106904104
11	0x3df1858b	0.117930494
12	0xbe03910d	-0.12848301
13	0xbd73612e	-0.05941885
14	0x3e17281d	0.14761396
15	0xbd82e1ae	-0.06390701
16	0xbd923c58	-0.07140416
17	0xbe537306	-0.20649347
18	0xbda01fff	-0.07818603
19	0x3c9eae0a	0.019370098
20	0x3dbcad0a	0.09212692
21	0xbc5acbf5	-0.013354291

sequential_10/dense_46/BiasAdd/ReadVariableOp f4 [32]
0	0x3e83c9ff	0.25740048
1	0xbd005142	-0.031327493
2	0x3e358c18	0.17729223
3	0xbd1ec073	-0.038757753
4	0x3e06d8d8	0.13168657
5	0xbda0da52	-0.07854141
6	0x3d1e8b13	0.03870685
7	0x3e0cf148	0.13763916
8	0x3db98d7e	0.090601906
9	0xbd648562	-0.055791266
10	0xbda022f7	-0.07819169
11	0xbe4b6a4a	-0.19864765
12	0x3d9a084b	0.07521113
13	0xbb5954d2	-0.003316213
14	0xbe29d3cc	-0.165847
15	0xbca75597	-0.020426555
16	0xbcf15906	-0.029461395
17	0x3db85fa5	0.09002618
18	0x3e26fb4f	0.16306804
19	0xbd70ed2b	-0.05881993
20	0x3d98948f	0.0745021
21	0x3e475e9d	0.19469686
22	0x3db7d1cc	0.089755625
23	0x3da04589	0.07825763
24	0x3e3c7a8c	0.18406123
25	0x3df948c6	0.121720836
26	0xbd020025	-0.03173842
27	0x3e89b545	0.2689611
28	0x3d67b022	0.056564458
29	0x3d8a883e	0.067642674
30	0x3d465003	0.04841615
31	0xbd194334	-0.037417606

sequential_10/dense_45/BiasAdd/ReadVariableOp f4 [64]
0	0x3e21356f	0.1574304
1	0x3de2c2a6	0.110722825
2	0x3d22d33a	0.039752223
3	0xbcf220db	-0.029556682
4	0xbbf27bf2	-0.0074000293
5	0x3ec619f9	0.3869169
6	0xbdaba2ae	-0.08380638
7	0x3c9746f4	0.01846645
8	0xbe079148	-0.13239014
9	0x3e621ea5	0.22082002
10	0xbd2307da	-0.03980241
11	0xbc8f1558	-0.017466232
12	0x3e4c5559	0.19954433
13	0xbe5032e8	-0.20331919
14	0x3e872740	0.26397133
15	0x3e91c0dd	0.28467456
16	0xbd3a4eb6	-0.04548522
17	0xbc5818cd	-0.013189507
18	0xbd6d88f1	-0.057991926
19	0x3bb7f9e7	0.0056145075
20	0x3c753df2	0.014968382
21	0x3e2abbd5	0.16673215
22	0xbcb40662	-0.0219757
23	0xbe39f8bb	-0.1816129
24	0x3e98e3a7	0.29861185
25	0xbb089f52	-0.0020846915
26	0x3e870ed2	0.26378495
27	0x3d9e6ff1	0.07736195
28	0x3e5a9986	0.21347627
29	0x3eacaea4	0.3372699
30	0xbd304018	-0.043029875
31	0xbd5d715a	-0.05406318
32	0xbdb5d1a9	-0.0887788
33	0x3e62f648	0.22164261
34	0xbd741101	-0.05958653
35	0x3dbb1980	0.09135723
36	0x3da4367e	0.08018206
37	0x3de16212	0.110050336
38	0xbdd6e427	-0.10492735
39	0xbcd29740	-0.025706887
40	0x3e02ded9	0.12780322
41	0xbdebd4d9	-0.11515207
42	0xbdf76fd5	-0.12081877
43	0x3e816a0a	0.25276214
44	0x3e637697	0.22213207
45	0x3e814de9	0.25254753
46	0x3e36209a	0.17785874
47	0x3df88add	0.12135861
48	0xbdc8b4ce	-0.09800111
49	0xbdbeb499	-0.0931179
50	0xbd23499f	-0.039865132
51	0x3e050bc8	0.12992775
52	0x3abfdf17	0.001463863
53	0x3e72dfb0	0.23718143
54	0x3e401af3	0.1876028
55	0xbe9f0dec	-0.3106531
56	0xbc9a8c64	-0.018865772
57	0xbe0b6d1f	-0.13615845
58	0x3da69c52	0.081352845
59	0x3e08971d	0.13338895
60	0x3cb1ee77	0.021720154
61	0x3ead8b01	0.33895114
62	0xbd1413b7	-0.036151614
63	0x3d3a672c	0.04550855

sequential_10/dense_44/BiasAdd/ReadVariableOp f4 [64]
0	0x3ceffbd3	0.029294884
1	0x3db0482a	0.08607514
2	0xbde7c9fa	-0.11317821
3	0xbe28b7b1	-0.16476323
4	0xbe583cf7	-0.21117006
5	0x3e1ed1d0	0.15509725
6	0x3e9750f3	0.29553947
7	0xbb5a6c24	-0.0033328617
8	0x3abdc702	0.0014478865
9	0x3e548bc1	0.20756437
10	0x3e9083df	0.2822561
11	0x3c30ad97	0.010783575
12	0xbe0fd9fd	-0.14048
13	0xbe6af677	-0.22945581
14	0xbc872b91	-0.016500266
15	0x3e93baff	0.28853604
16	0x3e3f4731	0.18679501
17	0x3b3e25a5	0.0029014137
18	0xbdc9a382	-0.0984564
19	0x3e959b4f	0.29220054
20	0x3cbdda15	0.023175279
21	0x3e0b2af8	0.1359061
22	0x3d777d9b	0.06042252
23	0x3d23b80d	0.039970446
24	0x3e8a2a72	0.26985508
25	0x3e4a2af1	0.19742943
26	0x3d117dc2	0.035520323
27	0x00000000	0.0
28	0x3e82f0e8	0.25574422
29	0x3e8af845	0.2714254
30	0x3d0ee273	0.034883928
31	0xbe3f61bb	-0.18689625
32	0xbe51c821	-0.204865
33	0x3df773d5	0.1208264
34	0xbd4670b3	-0.048447322
35	0x3e03de8c	0.12877864
36	0x3e4e79f1	0.20163704
37	0xbddbf20d	-0.10739527
38	0xbe132a9c	-0.14371723
39	0x3e21239c	0.1573624
40	0x3ca459a7	0.02006228
41	0x3e8f4aa6	0.2798664
42	0xbcb88933	-0.02252636
43	0x3e95b34d	0.29238358
44	0x3e803fe3	0.25048742
45	0x3ea99d68	0.33127904
46	0x3ca3d5a0	0.019999325
47	0x3dc953e0	0.09830451
48	0x3ec5bfb4	0.3862282
49	0x3d9f7f5a	0.07787962
50	0x3e9dd82d	0.30828992
51	0x3ea4fbdf	0.32223412
52	0xbdc853b5	-0.09781591
53	0xbe13c178	-0.14429271
54	0x3e8a42e2	0.27004153
55	0x00000000	0.0
56	0xbcc09f14	-0.023513354
57	0xbe15e81e	-0.14639327
58	0x3e084dd7	0.13310944
59	0x3d89c936	0.06727831
60	0xbe13eb7a	-0.14445296
61	0x3e6bd4b8	0.23030365
62	0x3ede2b43	0.4339238
63	0x3e377337	0.17915045

sequential_10/dense_43/BiasAdd/ReadVariableOp f4 [128]
0	0xbd3943e2	-0.045230754
1	0x3c090ea3	0.008365306
2	0x3d942e95	0.07235447
3	0xbd0dbec4	-0.034605756
4	0xbe3470e0	-0.17621183
5	0x3e7365ae	0.23769256
6	0x3b6824ae	0.0035422253
7	0x3e898a73	0.2686344
8	0xbd394810	-0.04523474
9	0x3eb6fcbb	0.35739693
10	0x3e0aa5c1	0.13539793
11	0x3d37d4f7	0.044880833
12	0xbe5d3193	-0.21600942
13	0xbdfd21d3	-0.12359967
14	0x3e4d404b	0.20044057
15	0x3da0024b	0.07812937
16	0xbd40dd05	-0.04708578
17	0x3d3f1997	0.046655264
18	0xbe3ba9c4	-0.18326479
19	0x3e56b406	0.20967111
20	0x3ea856af	0.32878634
21	0x3dbc53a8	0.09195644
22	0x3cf138c7	0.029446019
23	0x3e0d7f11	0.13818003
24	0xbcc2100f	-0.023689298
25	0x3e3918c6	0.18075857
26	0xbe8a4a95	-0.27010027
27	0x3d398d0c	0.04530053
28	0xbe2886e0	-0.164577
29	0x3efa96a7	0.48943064
30	0x3e44d73d	0.19222732
31	0x3d07d225	0.033159394
32	0x3e932ff2	0.28747517
33	0xbbba4768	-0.005684782
34	0x3e2ea20c	0.17054003
35	0x3e6c8fe2	0.23101762
36	0xbc693dc7	-0.01423592
37	0x3d572024	0.052520886
38	0x3d330667	0.043707278
39	0x3e3e2bcb	0.18571393
40	0x3e3403b5	0.17579539
41	0xbdaa0085	-0.0830088
42	0xbe88d6cb	-0.26726374
43	0xbd1d0156	-0.038331352
44	0xbd94f05d	-0.07272408
45	0x3b500da3	0.003174641
46	0x3eb3e6bb	0.3513697
47	0xbccf0599	-0.025271224
48	0x3db8e888	0.09028727
49	0xbcbd7ee3	-0.023131793
50	0xbde95afc	-0.11394307
51	0x3d9f7f13	0.07787909
52	0x3d7b4257	0.061342563
53	0xbe82f720	-0.25579166
54	0x3d68d24e	0.056841187
55	0x3dc0f227	0.09421187
56	0x3d73293f	0.059365507
57	0xbe79505d	-0.24347062
58	0x3ec98c28	0.39364743
59	0x3de84b14	0.11342445
60	0x3d60e5e8	0.054906756
61	0xbe7a9484	-0.24470717
62	0x3d17d629	0.037069473
63	0x3eb304c0	0.3496456
64	0x3ddabdb5	0.10680715
65	0x3e4e96b2	0.20174673
66	0xbd9f65e2	-0.077831045
67	0x3da0265b	0.07819816
68	0x3e024db1	0.1272495
69	0x3eb6b92e	0.35688156
70	0x3cbc1695	0.022959987
71	0xbe2a402f	-0.16626047
72	0xbd78fe35	-0.060789306
73	0x3ec200ea	0.37891322
74	0x3e93d09f	0.28870103
75	0x3db830c4	0.08993676
76	0xbd67e186	-0.05661156
77	0x3e4c3034	0.19940263
78	0x3eb12c5f	0.34604165
79	0xbdd46b07	-0.10371976
80	0x3e171929	0.14755692
81	0xbde7a6e2	-0.11311127
82	0x3e401ce4	0.18761021
83	0x3d97b451	0.074074395
84	0x3e93ccbe	0.28867143
85	0x3e442c77	0.19157587
86	0x3d601051	0.05470306
87	0x3e91235d	0.28347293
88	0xbe5a8675	-0.21340354
89	0x3d5431b6	0.05180522
90	0xbe4d815e	-0.20068881
91	0x3cd038cd	0.02541771
92	0x3e6c6ab8	0.23087585
93	0x3e077543	0.13228326
94	0x3e1581bc	0.14600271
95	0x3e11e4d7	0.14247452
96	0x3e62fe72	0.22167376
97	0xbe4f7b3f	-0.20261858
98	0x3dd5a6ab	0.1043218
99	0xbd9e033c	-0.07715461
100	0x3d462b36	0.048381053
101	0x3c63028f	0.0138555905
102	0xbe4afbc1	-0.19822599
103	0x3e7ad6a4	0.24495941
104	0x3ccfef34	0.025382616
105	0x3e4e6d59	0.201589
106	0x3ebb13a2	0.36538416
107	0xbd72587c	-0.059166417
108	0x3da4dad8	0.08049554
109	0x3d625e6a	0.05526582
110	0xbbc20c7b	-0.005921898
111	0xbe0c6d10	-0.13713479
112	0x3d915338	0.07095951
113	0x3ce8bd4c	0.028410576
114	0x3d9ec6d6	0.07752769
115	0x3edaa6ac	0.42705286
116	0x3edf5194	0.43616927
117	0x3be66dbd	0.007032125
118	0x3ed1f548	0.41007447
119	0x3deb2c8d	0.11483107
120	0xbe0f0e18	-0.1397022
121	0x3d9e19cb	0.07719763
122	0x3c488332	0.012238311
123	0x3e8a765a	0.2704342
124	0x3daeb0e5	0.08529834
125	0xbca72fdd	-0.020408565
126	0x3e1b6949	0.15176882
127	0x3d7b43c4	0.061343923

sequential_10/dense_43/MatMul f4 [128, 3]
0	0xbf139120	-0.5764332
1	0x3e357f07	0.17724238
2	0xbe40bb5f	-0.18821476
3	0x3f09543d	0.5364416
4	0x3e65ab31	0.22428586
5	0xbb11d6c1	-0.0022253247
6	0x3e507f24	0.20361
7	0x3ece3a23	0.4027873
8	0xbebf73fd	-0.3739318
9	0x3d226b6c	0.039653227
10	0x3ee93ab6	0.45552605
11	0x3da73408	0.08164221
12	0xbe62bc7f	-0.22142218
13	0x3f089445	0.5335124
14	0x3e09d325	0.13459451
15	0x3e6d9c89	0.23204245
16	0xbe1c6714	-0.15273696
17	0x3d65434e	0.05597239
18	0xbd999933	-0.074999236
19	0xbe450d20	-0.19243288
20	0x3ee2b2c1	0.44277003
21	0x3d19c79d	0.03754388
22	0xbe3910ce	-0.18072817
23	0x3e790894	0.24319679
24	0xbe9e18cf	-0.30878302
25	0xbee1923b	-0.44056877
26	0xbe1f258b	-0.15541665
27	0x3e6a314c	0.22870368
28	0xbe289833	-0.1646431
29	0x3dc40294	0.09570804
30	0x3e84cabf	0.25935933
31	0xbd283f25	-0.041075844
32	0xbcb2b35a	-0.021814037
33	0x3eab80ac	0.33496606
34	0xbebf9bc7	-0.37423536
35	0xbe51118a	-0.20416847
36	0xbdb4a820	-0.0882113
37	0xbd07ac65	-0.033123393
38	0xbef68c97	-0.48154137
39	0xbee5fd8c	-0.44920003
40	0xbe8efcf0	-0.2792735
41	0x3ca9b6e4	0.020717092
42	0x3eb952d6	0.3619601
43	0xbd0ec088	-0.03485158
44	0xbddd395c	-0.10801956
45	0x3c6df505	0.014523749
46	0x3de2543c	0.11051223
47	0x3df40e81	0.11916829
48	0x3df06e47	0.11739784
49	0xbda56817	-0.08076494
50	0x3e9fa168	0.3117783
51	0x3ddd3abc	0.10802218
52	0xbec46f7c	-0.38366306
53	0x3e2a9d1c	0.16661495
54	0xbe334904	-0.17508322
55	0x3f201ea0	0.6254673
56	0xbe007a87	-0.1254674
57	0xbc6bc461	-0.014390082
58	0xbd86c927	-0.065813355
59	0xbe8f37db	-0.27972302
60	0xbec3d244	-0.38246357
61	0x3e661a5b	0.22470991
62	0x3e0e9c55	0.13926823
63	0x3e429a00	0.19004059
64	0xbe47d0c9	-0.19513239
65	0xbea20186	-0.31641787
66	0x3e902235	0.28151098
67	0x3eb2304a	0.34802467
68	0x3e245ee2	0.1605182
69	0x3dc9a538	0.09845966
70	0x3e9e790f	0.30951735
71	0xbceabc96	-0.028654378
72	0x3e9baf5d	0.3040723
73	0x3e7564b7	0.23964201
74	0xbec799b1	-0.38984445
75	0x3e16a824	0.14712578
76	0x3eb9212a	0.36158115
77	0xbd76ef5d	-0.06028687
78	0x3d360559	0.044438694
79	0xbe7cc641	-0.24685003
80	0x3e9e126b	0.30873427
81	0xbdfe98d2	-0.12431492
82	0xbefb945e	-0.49136633
83	0xbd0ab710	-0.03386599
84	0xbe73e418	-0.2381748
85	0xbe7c4b8f	-0.24638198
86	0x3e869c44	0.26291096
87	0x3b9f7eec	0.004867425
88	0x3cb6e3bd	0.022325391
89	0xbde42b6e	-0.11141096
90	0xbdbd9321	-0.09256578
91	0xbe8a6c4c	-0.2703575
92	0x3e22b9d1	0.15891196
93	0x3dad9473	0.0847558
94	0xbda0b976	-0.07847874
95	0x3f08f5b7	0.5349993
96	0x3e96a378	0.29421592
97	0xbdb92f1b	-0.09042188
98	0x3e1fac36	0.15593037
99	0xbb155a4e	-0.0022789421
100	0x3f1e11c7	0.61745876
101	0x3d8ccba4	0.06874779
102	0xbebe33f4	-0.37149012
103	0x3e7867ea	0.2425839
104	0x3e22519b	0.15851443
105	0xbb66aa72	-0.0035196808
106	0xbe0213e3	-0.12702899
107	0x3e54bcce	0.20775148
108	0x3e677625	0.22603662
109	0xbd477671	-0.04869694
110	0xbd42970d	-0.047507335
111	0x3d4b4cef	0.049633916
112	0x3dae3e4a	0.085079744
113	0x3e253657	0.1613401
114	0xbeb3ec20	-0.35141087
115	0xbda98799	-0.08277816
116	0x3e0a3dcf	0.1350014
117	0xbe2f2778	-0.171049
118	0xbe6ec529	-0.23317398
119	0xbe95d85b	-0.2926663
120	0x3d32954a	0.043599404
121	0xbd816e9d	-0.06319926
122	0xbe988145	-0.29786125
123	0xbe7384ad	-0.2378108
124	0xbea8ca5c	-0.32966888
125	0x3e6a5076	0.22882256
126	0xbeec4f29	-0.46154144
127	0xbe20a9b7	-0.15689741
128	0x3e5c1ae3	0.21494631
129	0xbecb960a	-0.39762908
130	0xbe2c29f3	-0.16812877
131	0xbcd28379	-0.025697457
132	0x3f0bfe31	0.5468474
133	0x3e041b45	0.12901028
134	0x3e0f658a	0.14003578
135	0x3eccfe0d	0.40037575
136	0x3eae9fb6	0.34106225
137	0x3dd9a5cb	0.106273256
138	0x3d5c5534	0.053792194
139	0xbe623ce1	-0.22093536
140	0x3d848e92	0.06472506
141	0x3e497237	0.19672476
142	0x3e27a0df	0.16369961
143	0xbefbeea2	-0.492055
144	0x3eb8bc26	0.36081046
145	0x3e93cec0	0.28868675
146	0x3e402ce1	0.1876712
147	0xbe624a76	-0.22098717
148	0x3d73524c	0.059404656
149	0xbf005a6b	-0.50137967
150	0x3ed637c4	0.4183942
151	0xbeeb10a4	-0.45911133
152	0x3e51818d	0.20459576
153	0xbe802ce7	-0.25034258
154	0xbe1ab174	-0.15106755
155	0xbddb1a79	-0.10698409
156	0xbe82c5c9	-0.25541523
157	0xbda6533d	-0.08121345
158	0xbecff6f9	-0.40618113
159	0x3e629a8e	0.2212927
160	0xbdf43863	-0.119248174
161	0xbeec9022	-0.46203715
162	0xbf1d4537	-0.6143374
163	0x3eb25905	0.34833542
164	0xbdd29e60	-0.10284114
165	0x3cbcd7f2	0.02305219
166	0x3dccdb00	0.100027084
167	0xbec2fb57	-0.38082382
168	0xbd3baf6c	-0.045821592
169	0xbe179a3c	-0.1480493
170	0xbe054dd1	-0.13017966
171	0x3d1640bf	0.03668284
172	0xbeac4ddc	-0.33653152
173	0xbe71f317	-0.23627888
174	0x3eca36e2	0.39494997
175	0xbdf94029	-0.12170441
176	0x3e603e2a	0.21898714
177	0x3e4f674b	0.20254247
178	0x3e806488	0.250767
179	0x3df041c6	0.11731295
180	0x3e38c5ea	0.18044248
181	0xbe0adf3c	-0.1356172
182	0xbc33e642	-0.010980191
183	0xbdb1deee	-0.086850986
184	0xbd8e3e4e	-0.069454774
185	0xbf139295	-0.5764554
186	0xbd9cb644	-0.07651952
187	0x3da206c1	0.079114445
188	0xbef3b686	-0.47600192
189	0xbe2fdcd7	-0.17174087
190	0x3d803c52	0.06261505
191	0x3e09bf19	0.13451804
192	0xbe7800c6	-0.24219045
193	0x3e6d94f9	0.2320136
194	0xbeb78308	-0.35842156
195	0x3ea0eefb	0.31432328
196	0x3eb0d90e	0.345406
197	0xbd99b34b	-0.075049005
198	0x3d88838e	0.06665717
199	0xbe8d4e97	-0.27599022
200	0xbef5c7fd	-0.4800414
201	0xbe747309	-0.23872007
202	0xbe12fe08	-0.14354718
203	0xbdcd870f	-0.10035526
204	0x3ea4fcee	0.3222422
205	0x3d00967a	0.031393506
206	0xbe01172e	-0.12606499
207	0xbe1f16c4	-0.15536028
208	0xbe70d55e	-0.23518893
209	0xbc0fb561	-0.008771271
210	0xbe58046b	-0.21095435
211	0xbed6d4d3	-0.41959247
212	0x3e68947f	0.22712897
213	0x3f2f09f0	0.6837454
214	0xbdadcfbc	-0.08486888
215	0xbda189d7	-0.07887619
216	0xbed6abd6	-0.41927975
217	0x3dacadc6	0.08431582
218	0x3eae5858	0.34051776
219	0x3db6fec3	0.08935311
220	0xbdf41765	-0.11918525
221	0x3e4a1f22	0.19738439
222	0x3d283817	0.041069116
223	0xbe868e75	-0.2628056
224	0x3e5e6cda	0.21721211
225	0xbe1f21ec	-0.15540284
226	0xbe82e2a0	-0.25563526
227	0x3eb1b112	0.34705406
228	0xbee9a313	-0.45632228
229	0x3e124b98	0.14286649
230	0xbe0ccfa6	-0.13751087
231	0x3e12d7d3	0.14340143
232	0x3ed17554	0.40909827
233	0xbd900169	-0.07031519
234	0x3cd3191c	0.025768809
235	0xbebd8f0e	-0.37023205
236	0xbb9f5faa	-0.004863699
237	0x3db654cb	0.08902892
238	0x3ec65e3f	0.3874378
239	0x3e9c904f	0.3057885
240	0x3e6c12dd	0.23054071
241	0xbe731dfc	-0.23741907
242	0xbe542844	-0.20718485
243	0xbd4770f3	-0.0486917
244	0x3f103895	0.5633634
245	0xbd679a24	-0.056543484
246	0x3d8813b0	0.0664438
247	0x3d119d61	0.03555048
248	0xbf08dc06	-0.5346073
249	0xbf07a51b	-0.52986306
250	0x3dc8fba1	0.098136194
251	0xbd1e2fa5	-0.038619656
252	0x3d0c74f1	0.03429121
253	0x3c744b90	0.014910594
254	0x3e4fffbc	0.20312399
255	0x3d6c24d9	0.05765233

sequential_10/dense_44/MatMul f4 [64, 128]
0	0x3d9f49f7	0.077777795
1	0xbcefc36a	-0.029267985
2	0x3e1d84ff	0.15382765
3	0x3bbb6e82	0.0057199607
4	0xbdc8ba0b	-0.0980111
5	0x3d8d149b	0.06888696
6	0x3d4df6dd	0.050284255
7	0x3d975e62	0.07391049
8	0xbe71c115	-0.23608811
9	0x3d81ab6a	0.06331523
10	0xbd897ed2	-0.06713642
11	0xbe944aa8	-0.28963208
12	0x3c163cb9	0.009169751
13	0x3dc6821a	0.09692784
14	0x3e1a89b5	0.15091594
15	0xbe222ea5	-0.15838106
16	0x3de0ce85	0.109768905
17	0xbeacd225	-0.33754078
18	0xbddd4119	-0.10803432
19	0x3e3a56a6	0.18197116
20	0x3d975610	0.07389462
21	0x3d8d8aae	0.06911217
22	0xbe5f7d12	-0.21825054
23	0xbd4d825e	-0.050173156
24	0x3e2f9bc6	0.17149267
25	0x3dd95907	0.10612684
26	0x3e6dc4dd	0.23219629
27	0xbe24e570	-0.16103148
28	0x3e7ae21c	0.24500316
29	0x3d325cef	0.04354566
30	0xbd1bb83a	-0.03801749
31	0xbe858d6d	-0.26084462
32	0xbda38cb4	-0.07985821
33	0xbe8165fa	-0.25273114
34	0xbd12e412	-0.035862036
35	0xbb06ea0e	-0.0020586285
36	0x3d623484	0.055225864
37	0xbdaf46f7	-0.08558457
38	0x3e51b4b0	0.20479083
39	0xbcb5d4fc	-0.022196285
40	0x3d130ff0	0.03590387
41	0x3e412c21	0.1886449
42	0x3dcdda1a	0.10051365
43	0x3e22ce73	0.15899067
44	0x3e9be20c	0.30445898
45	0x3b49d8f9	0.0030799492
46	0x3c85a5c8	0.016314402
47	0xbde1ecd1	-0.11031497
48	0x3de8a6ba	0.113599256
49	0x3e1488d4	0.14505321
50	0xbea95199	-0.33070067
51	0x3dc23b6c	0.0948399
52	0x3e010b49	0.12601961
53	0xbe0ff568	-0.14058459
54	0xbd9d340c	-0.07675943
55	0xbc83ff88	-0.016113058
56	0xbdab270a	-0.083570555
57	0xbef58ea5	-0.47960392
58	0x3e6e2411	0.23255946
59	0xbddb87a2	-0.10719229
60	0xbd87b799	-0.06626815
61	0x3e0bda74	0.13657552
62	0xbd8972c8	-0.06711346
63	0x3e3bd5fc	0.18343347
64	0x3dd07c53	0.10179963
65	0x3e8822ad	0.26588956
66	0xbe988c5d	-0.2979459
67	0xbdaf05dc	-0.085460395
68	0x3e0b89ae	0.1362674
69	0xbe265dc8	-0.16246712
70	0x3e150524	0.14552742
71	0xbd9781a3	-0.07397773
72	0xbe0d87ac	-0.13821286
73	0x3e42f0ee	0.1903722
74	0x3c302923	0.010751995
75	0x3e28787b	0.1645221
76	0x3e7bc0cb	0.24585263
77	0x3e733f14	0.23754531
78	0xbe6350d2	-0.22198799
79	0xbe6e5421	-0.2327428
80	0xbe58631c	-0.21131557
81	0xbe34933d	-0.17634292
82	0x3e30e942	0.17276481
83	0x3bc43154	0.0059873257
84	0x3e386f57	0.18011223
85	0x3bd6e3e9	0.0065579307
86	0x3e06b456	0.1315473
87	0x3d468c46	0.04847362
88	0xbe3478e9	-0.17624249
89	0x3e1a9a95	0.15098031
90	0xbd78dd16	-0.06075772
91	0xbc849b6b	-0.01618739
92	0x3d6d8e20	0.05799687
93	0x3c5beeee	0.0134236645
94	0x3d88bf35	0.06677095
95	0xbe3a5e88	-0.18200123
96	0x3e93fa67	0.2890198
97	0xbe9ab5f9	-0.3021696
98	0x3e764f4c	0.24053687
99	0x3d307747	0.0430825
100	0xbdd0aaff	-0.10188865
101	0xbdb6373a	-0.088972524
102	0xbe79aa1e	-0.24381301
103	0x3d276eb0	0.040877044
104	0x3e3a2f16	0.18182024
105	0x3e499130	0.19684291
106	0x3e346f38	0.17620552
107	0xbd16304b	-0.03666715
108	0xbecc93a8	-0.39956403
109	0xbe0ca617	-0.13735233
110	0x3d2912d7	0.041277733
111	0x3e56dec7	0.2098342
112	0xbdd52b33	-0.1040863
113	0xbdc41c11	-0.09575666
114	0x3e3f970e	0.18709967
115	0x3db17840	0.08665514
116	0xbe53f049	-0.2069713
117	0xbe6fd41c	-0.23420757
118	0xbdfc8d87	-0.12331682
119	0x3e2cd38b	0.16877572
120	0xbe97518a	-0.29554397
121	0x3e5b2caf	0.21403764
122	0xbe369ccd	-0.17833252
123	0x3d700e81	0.058607582
124	0xbc763f5d	-0.015029755
125	0xbdac7cc3	-0.08422234
126	0x3e0f5b23	0.1399961
127	0x3e4b8229	0.19873871
128	0x3e129568	0.14314806
129	0xbeafcd7f	-0.3433647
130	0xbe86012d	-0.26172772
131	0xbe4db339	-0.200879
132	0x3e2d7d90	0.1694243
133	0x3db7510c	0.08951005
134	0x3e3ee4db	0.18641989
135	0x3d946c3d	0.07247207
136	0x3d8b2086	0.06793313
137	0x3e2336a3	0.15938811
138	0xbcba8238	-0.022767171
139	0xbea24f18	-0.3170097
140	0x3daa813a	0.08325429
141	0x3d9df8ea	0.07713492
142	0xbe0c1dfa	-0.1368331
143	0xbd55d655	-0.052206356
144	0x3db35de1	0.0875814
145	0xbdf5ad6e	-0.1199597
146	0x3dec10e2	0.11526658
147	0x3ea5dc23	0.32394513
148	0x3eb570ea	0.3543771
149	0x3e60d2bf	0.21955393
150	0xbe779f55	-0.24181874
151	0xbde8de2e	-0.113705024
152	0x3cf6f669	0.030146794
153	0xbd419b2f	-0.047267135
154	0xbe717d8b	-0.23583047
155	0xbe475578	-0.19466197
156	0x3de6f2af	0.11276757
157	0x3d47a1ec	0.048738405
158	0x3cdfcd56	0.027319591
159	0x3cc01b57	0.023450537
160	0x3cd1aa4e	0.025593903
161	0xbeaa44f7	-0.3325574
162	0x3e52dbc8	0.20591652
163	0x3e666dc2	0.22502807
164	0x3db8ab12	0.09017004
165	0x3e4d09f5	0.2002333
166	0x3e92f5a4	0.28703034
167	0x3d31cc40	0.04340768
168	0xbd1cc717	-0.038275804
169	0x3e9450bd	0.28967848
170	0x3cd65386	0.026162874
171	0x3e36a078	0.17834651
172	0xbe9b23e3	-0.30300817
173	0xbec3aa4d	-0.38215867
174	0xbddafe34	-0.10693017
175	0xbd39ecc7	-0.045391824
176	0xbe633af8	-0.22190464
177	0x3e640905	0.22269066
178	0xbedd73a2	-0.43252283
179	0x3dff5121	0.12466646
180	0x3e7c8d6c	0.24663323
181	0xbe2de9cd	-0.16983719
182	0x3e9f844a	0.31155616
183	0x3e86a0e5	0.26294628
184	0x3c5ea9a7	0.013590253
185	0xbe940b3c	-0.2891482
186	0x3e40e089	0.18835653
187	0xbbb89b80	-0.0056337714
188	0xbe8d0f35	-0.27550665
189	0xbccc5190	-0.024941236
190	0x3df516d9	0.119672485
191	0x3cf42cd3	0.02980653
192	0x3e03d3c7	0.12873755
193	0xbd1ec7fd	-0.038764942
194	0x3d780c5f	0.060558673
195	0x3e7ded81	0.24797632
196	0x3d76604e	0.060150437
197	0x3ddc8f13	0.10769477
198	0xbd02cb3d	-0.031932104
199	0xbf151f91	-0.5825129
200	0x3e71d091	0.23614718
201	0xbbc076f1	-0.005873554
202	0xbd935094	-0.071931034
203	0x3e784262	0.24244073
204	0x3ea32c9d	0.31869975
205	0xbe6a6847	-0.22891341
206	0x3d3ad602	0.04561425
207	0xbc57aebe	-0.01316422
208	0xbe350359	-0.17677058
209	0x3daa2803	0.08308413
210	0x3d208502	0.039189346
211	0x3e8becc0	0.27329063
212	0x3dc7c04e	0.09753476
213	0x3e0ef2c8	0.13959801
214	0x3e7f06b3	0.249049
215	0x3e01ae65	0.12664182
216	0xbec7bc8e	-0.39011043
217	0x3d325e7b	0.043547135
218	0x3f063e57	0.52438873
219	0xbce3b0df	-0.0277943
220	0xbce8298d	-0.028340125
221	0xbe1dac65	-0.15397795
222	0x3c225944	0.009908978
223	0x3dfb3dda	0.122676566
224	0x3e3ab25f	0.18232106
225	0xbe671c19	-0.22569312
226	0xbee15563	-0.44010457
227	0xbe905492	-0.28189522
228	0x3d3128ea	0.04325191
229	0xbf1246bd	-0.5713919
230	0xbdf04e48	-0.11733681
231	0xbd861883	-0.06547644
232	0xbd5a853f	-0.05334973
233	0x3e43ebf2	0.19132975
234	0xb88bbb2c	-6.6629e-05
235	0x3ea69515	0.32535616
236	0x3e443b7f	0.19163321
237	0xbdcf143a	-0.1011128
238	0x3d7f501a	0.06233225
239	0xbf421c29	-0.7582422
240	0x3ea881f8	0.32911658
241	0xbd7946c1	-0.06085849
242	0xbcf004c9	-0.029299157
243	0x3e33960a	0.17537704
244	0x3ea32cc4	0.3187009
245	0x3e14c714	0.14529067
246	0x3e733dbf	0.23754023
247	0x3e32a340	0.17445087
248	0xbe2fe8cd	-0.1717865
249	0xbd8f09cb	-0.0698429
250	0xbd46a9df	-0.048501845
251	0xbe1e6597	-0.15468441
252	0xbea5b0a7	-0.32361338
253	0xbdd2f6b1	-0.10300959
254	0x3cb9e61e	0.022692736
255	0x3d8aaedf	0.06771635

sequential_10/dense_45/MatMul f4 [64, 64]
0	0xbd121621	-0.035665635
1	0xbf582472	-0.8443061
2	0x3d3ab724	0.045584813
3	0x3e7364d0	0.23768926
4	0x3df0f634	0.117657095
5	0x3da57e3d	0.08080719
6	0x3d154fc1	0.036453012
7	0xbe42955c	-0.19002289
8	0x3e2ddea2	0.16979459
9	0x3eb9e3a4	0.3630649
10	0xbdf5ed58	-0.1200816
11	0x3e6c2ad5	0.23063214
12	0xbd879a81	-0.06621266
13	0x3d946fba	0.07247873
14	0xbdc8006b	-0.09765705
15	0x3db7aab2	0.089681044
16	0x3d442e3f	0.047895666
17	0xbe45075b	-0.19241087
18	0x3f510c23	0.81659144
19	0x3dd22628	0.10261184
20	0x3ee162e3	0.44020757
21	0xbe1b343a	-0.15156642
22	0xbe3e491f	-0.18582581
23	0xbdc85c81	-0.09783269
24	0xbda117ef	-0.07865893
25	0xbf58dc41	-0.8471108
26	0x3d55e37c	0.0522189
27	0xbe200e3f	-0.15630434
28	0xbdb47681	-0.08811665
29	0x3e767310	0.2406733
30	0x3e1ccbf8	0.15312183
31	0x3d34d542	0.04414869
32	0xbf166fff	-0.5876464
33	0xbd5de589	-0.05417398
34	0x3dba2e3d	0.090908505
35	0xbeea82da	-0.45802957
36	0xbe16b3bc	-0.14717
37	0xbd077ef8	-0.03308007
38	0xbca9614c	-0.020676278
39	0x3e9c8811	0.3057256
40	0xbec0d73f	-0.3766422
41	0x3e90aad1	0.28255323
42	0xbdbf53c5	-0.0934215
43	0x3e95b6ad	0.29240933
44	0x3cd94ab8	0.026524886
45	0xbd4251aa	-0.047441162
46	0x3e122317	0.14271198
47	0x3dfb178d	0.12260351
48	0x3e3df4e9	0.18550457
49	0xbd00e819	-0.031471346
50	0xbcd1c2d1	-0.025605591
51	0xbe359064	-0.17730862
52	0xbe48528d	-0.1956274
53	0xbd4889bd	-0.048959482
54	0x3e2ac6c1	0.16677381
55	0xbdb010ce	-0.08596955
56	0xbcc0c779	-0.023532616
57	0x3c4afc9c	0.012389328
58	0x3e955b07	0.2917101
59	0x3e2a5fba	0.1663808
60	0x3e2764b2	0.16347006
61	0x3eb72c75	0.35776106
62	0x3eb9aacb	0.36263117
63	0x3e1ec4c7	0.15504752
64	0x3ca80630	0.020510763
65	0x3de76fc9	0.11300618
66	0xbe1f03d4	-0.15528804
67	0x3e94f248	0.29091096
68	0xbe37971a	-0.17928734
69	0x3e25fe87	0.16210376
70	0xbd1a4429	-0.03766266
71	0x3dbf93f1	0.093543895
72	0xbe43322e	-0.19062111
73	0xbd923f9d	-0.071410395
74	0xbe016bf8	-0.12638843
75	0xbea6ccf9	-0.32578257
76	0xbe3e0127	-0.18555127
77	0x3bb7d312	0.0056098783
78	0x3de082d8	0.109624565
79	0x3e5dacce	0.21647951
80	0x3dfb975c	0.12284729
81	0xbd194986	-0.037423633
82	0xbf2124dd	-0.62946874
83	0x3e5843a3	0.21119551
84	0xbd78e9bf	-0.060769793
85	0xbdb74e1c	-0.08950445
86	0x3d9a561c	0.07535955
87	0x3c67fea4	0.014159832
88	0x3e8b416a	0.27198344
89	0x3da9c6be	0.0828986
90	0xbd6cba2f	-0.057794746
91	0xbe142edc	-0.14471
92	0x3e19bd1f	0.1501355
93	0x3da7b855	0.081894554
94	0x3d913b54	0.07091394
95	0x3d238a00	0.03992653
96	0xbe15129f	-0.14557885
97	0xbe9168d1	-0.2840028
98	0xbe14dbff	-0.14537047
99	0x3cd2c15e	0.02572697
100	0xbdba92b5	-0.091100134
101	0xbc48b447	-0.012250013
102	0x3b948509	0.0045324606
103	0xbe26aaf9	-0.16276158
104	0x3e98afa6	0.2982151
105	0x3e5b5e6d	0.2142274
106	0x3e47c0f9	0.19507207
107	0x3dda6dda	0.10665484
108	0x3e180e41	0.14849187
109	0x3e41ebf9	0.18937673
110	0x3e05a65b	0.13051741
111	0x3e8178c6	0.25287455
112	0x3e4fc9b9	0.20291795
113	0x3e153fb0	0.14575076
114	0x3e3c9f73	0.184202
115	0xbc487364	-0.0122345425
116	0x3dee8366	0.11646156
117	0x3e0ef5e1	0.13960983
118	0x3e027ec8	0.12743676
119	0x3e54ad3b	0.20769207
120	0xbe0d49e0	-0.13797712
121	0xbde100de	-0.109864935
122	0x3e55d3f1	0.2088163
123	0x3e03de87	0.12877856
124	0x3e31736a	0.17329183
125	0x3d57a358	0.05264601
126	0xbd713f40	-0.05889821
127	0x3e80d1bc	0.25160015
128	0xbdf3ec05	-0.119102515
129	0xbe450494	-0.19240028
130	0x3d42ad26	0.04752841
131	0x3da255da	0.07926531
132	0x3ea4d755	0.32195535
133	0x3cfecb04	0.031102665
134	0xbe2644df	-0.1623721
135	0xbd5ff4c8	-0.0546768
136	0xbea86693	-0.32890758
137	0xbf211216	-0.6291822
138	0xbe062dda	-0.13103428
139	0x3d64fa00	0.05590248
140	0xbb187f98	-0.0023269411
141	0xbf206978	-0.6266093
142	0x3d097a8c	0.033564135
143	0x3e42812e	0.1899459
144	0xbe489cf2	-0.1959112
145	0x3d516d7a	0.051129796
146	0x3eade274	0.33961833
147	0xbdf4ce16	-0.1195337
148	0x3e271d7d	0.16319843
149	0xbe0d11fa	-0.13776389
150	0x3e20d357	0.1570562
151	0xbe745878	-0.23861873
152	0x3e62d9be	0.22153375
153	0xbe62789c	-0.22116321
154	0x3e4c4d53	0.19951372
155	0xbda9d80c	-0.08293161
156	0xbe6d3811	-0.23165919
157	0x3e6d249e	0.231585
158	0x3d552aeb	0.052042883
159	0x3e0a5a6f	0.1351106
160	0xbe12718a	-0.14301124
161	0x3e715924	0.2356916
162	0x3d911820	0.070846796
163	0xbe925588	-0.2858088
164	0xbe475b59	-0.1946844
165	0x3dff8adf	0.124776594
166	0xbf3fe207	-0.74954265
167	0x3cec99b3	0.028881883
168	0x3ea005c3	0.31254396
169	0x3e2d6935	0.16934665
170	0xbe8e1711	-0.27751973
171	0x3ed658b5	0.41864553
172	0xbc99acbb	-0.018759122
173	0xbe10b6eb	-0.14132278
174	0x3e89dd83	0.26926813
175	0x3dedf933	0.116197966
176	0x3e610505	0.21974571
177	0x3e5fa477	0.21840082
178	0x3e9ef740	0.31048012
179	0xbe43c116	-0.19116625
180	0xbdb339cd	-0.08751259
181	0xbdafbbac	-0.085807174
182	0xbd581d12	-0.0527621
183	0x3ceedba8	0.029157475
184	0x3df32f13	0.11874213
185	0x3df73895	0.12071339
186	0x3d9db314	0.07700172
187	0xbdfce724	-0.12348774
188	0xbe01ee2f	-0.12688516
189	0x3dbc72a5	0.09201554
190	0xbd8b6a5e	-0.06807397
191	0x3e257000	0.16156006
192	0xbdfa4f1c	-0.1222212
193	0xbd11ef45	-0.035628576
194	0xbd9dfa75	-0.077137865
195	0xbc75893b	-0.014986332
196	0xbe142f9e	-0.1447129
197	0xbe139b4b	-0.14414708
198	0xbe47e3a9	-0.19520439
199	0xbd689448	-0.056782037
200	0xbe5c7ad7	-0.21531235
201	0x3dccb132	0.09994735
202	0xbccea4db	-0.025225094
203	0xbd994756	-0.074843094
204	0x3db2a1ab	0.08722242
205	0x3d67b90c	0.05657296
206	0x3e3268c0	0.17422771
207	0xbe3c90b5	-0.18414576
208	0x3e2d479f	0.16921853
209	0xbe072eac	-0.13201398
210	0xbe502c91	-0.203295
211	0xbdc161a3	-0.09442451
212	0xbcdfee20	-0.027335227
213	0xbe64f58d	-0.22359295
214	0x3da560a9	0.08075077
215	0xbe231c6f	-0.15928815
216	0xbd2fe1c4	-0.042939916
217	0x3e0e9b83	0.1392651
218	0xbd8fee14	-0.07027832
219	0x3daae5d2	0.08344616
220	0x3dc4d516	0.096109554
221	0x3d7a2214	0.061067656
222	0xbe5b12f4	-0.21393949
223	0xbe590658	-0.21193826
224	0xbda947ca	-0.08265646
225	0xbd7d5cd0	-0.06185609
226	0xbdab2d45	-0.08358244
227	0x3d7fc0a5	0.06243958
228	0x3db3be3c	0.08776519
229	0x3cc02a58	0.023457691
230	0x3df6b1be	0.120456204
231	0xbdbc67f9	-0.09199519
232	0xbe4c5c1e	-0.19957015
233	0x3deec83e	0.11659287
234	0xbe410e95	-0.18853219
235	0xbe46dac7	-0.19419394
236	0xbdc20647	-0.094738536
237	0x3d637c0c	0.055538222
238	0xbe2a8a1a	-0.16654244
239	0x3d891485	0.06693367
240	0xbdf5c289	-0.11999995
241	0x3d6fee9a	0.058577158
242	0x3d8e6362	0.069525495
243	0xbdb5fb73	-0.08885851
244	0xbc317643	-0.010831418
245	0xbe1570bd	-0.14593787
246	0xbd6a0767	-0.057135966
247	0xbdb8c6ee	-0.09022318
248	0xbe0fe09a	-0.14050522
249	0xbe15852c	-0.14601582
250	0x3e4ae08b	0.19812219
251	0xbc1bb680	-0.009503961
252	0x3e2866f9	0.16445531
253	0xbe054d2c	-0.1301772
254	0xbe536f92	-0.2064803
255	0xbe1428f0	-0.14468741

sequential_10/dense_46/MatMul f4 [32, 64]
0	0xbca285c2	-0.019839171
1	0x3dcb4f16	0.09927194
2	0x3e029611	0.12752558
3	0x3bdc980d	0.006731993
4	0xbe68159b	-0.22664492
5	0x3ee2b1b6	0.44276208
6	0x3da0cb4e	0.07851277
7	0x3b62f43c	0.0034630438
8	0xbed33414	-0.4125067
9	0x3eb3e39a	0.35134584
10	0xbe0904c4	-0.13380724
11	0x3dcb78f2	0.09935178
12	0x3e16f599	0.14742126
13	0xbe7aef27	-0.24505292
14	0x3da7c492	0.0819179
15	0x3dbefe16	0.09325807
16	0x3e3a11fc	0.18170923
17	0x3e40fc47	0.18846236
18	0xbde645d1	-0.11243785
19	0x3e83252e	0.25614303
20	0xbe39325f	-0.18085621
21	0x3e187c5c	0.1489119
22	0x3e16e0fb	0.1473426
23	0xbeef88f7	-0.46784183
24	0x3e68f7a9	0.22750725
25	0xbe85f3cb	-0.26162562
26	0x3e96f603	0.29484567
27	0x3e96a062	0.29419237
28	0x3ed5deae	0.41771454
29	0xbcaa0b8e	-0.020757463
30	0xbe7b337f	-0.24531363
31	0x3efe9493	0.49722728
32	0x3aa14786	0.0012304641
33	0x3e3e6a4c	0.18595237
34	0x3e3ab78b	0.18234079
35	0x3e039467	0.1284958
36	0xbbb10a67	-0.0054028514
37	0x3e3bb417	0.18330418
38	0x3bafac24	0.005361097
39	0xbd1610b5	-0.036637027
40	0xbe81e2c2	-0.25368315
41	0xbdf1e80a	-0.11811836
42	0xbdae82d4	-0.08521047
43	0xbd542104	-0.0517893
44	0x3d6e0ccc	0.058117673
45	0x3e89774b	0.26848826
46	0xbdf1413d	-0.11780021
47	0x3d792422	0.060825475
48	0xbe2da90a	-0.16959015
49	0xbe8dda56	-0.2770564
50	0x3ea1bc41	0.3158894
51	0x3dce565a	0.10075064
52	0x3daf9b32	0.08574523
53	0x3ec3ac15	0.38217226
54	0x3e8431fe	0.2581939
55	0xbe5406f9	-0.20705785
56	0xbdfbd92b	-0.12297281
57	0xbe56f7c1	-0.20992948
58	0xbe0307e1	-0.12795974
59	0x3e89db61	0.26925185
60	0x3eb96c24	0.36215317
61	0x3e76f0f9	0.24115361
62	0xbe6535e3	-0.22383837
63	0xbd970b98	-0.07375258
64	0xbdbd3540	-0.09238672
65	0xbe865347	-0.2623541
66	0x3d787676	0.06065985
67	0xbe13e5c8	-0.14443123
68	0x3c9a9740	0.01887095
69	0x3e05a946	0.13052854
70	0x3e7e1a60	0.24814749
71	0xbe059477	-0.13044916
72	0xbe54a4cc	-0.2076599
73	0x3e139d3a	0.14415446
74	0x3d26e297	0.040743437
75	0x3d8ac590	0.06775963
76	0xbdddfd48	-0.10839325
77	0xbdce57c8	-0.10075337
78	0xbe340194	-0.17578727
79	0x3e0a1ecc	0.1348831
80	0xbdfb50c8	-0.12271267
81	0x3d09b3c0	0.03361869
82	0x3d8148ee	0.06312738
83	0xbdcbd66c	-0.09953007
84	0xbd07b1b0	-0.03312844
85	0x3c9406e0	0.018069685
86	0x3d2a6a50	0.041605294
87	0x3d850dc8	0.06496769
88	0x3c010bb9	0.00787633
89	0xbd55e420	-0.05221951
90	0xbdd16799	-0.10224838
91	0xbdebb1c8	-0.115085185
92	0xbe720d69	-0.23637928
93	0xbe2b8fd3	-0.16754083
94	0xbe090dde	-0.13384196
95	0x3da55778	0.08073324
96	0xbcded781	-0.02720237
97	0x3e128930	0.14310145
98	0xbdce0e12	-0.100612774
99	0xbe6b941c	-0.23005718
100	0xbe3cd171	-0.1843927
101	0xbe1911dc	-0.14948219
102	0xbe17011e	-0.1474652
103	0xbe7a2840	-0.24429417
104	0xbe531294	-0.20612556
105	0x3e43c4cf	0.19118045
106	0xbdad5bbc	-0.084647626
107	0x3cbeee60	0.023307025
108	0xbe51ac30	-0.2047584
109	0xbdfd3598	-0.12363738
110	0x3de11f10	0.10992253
111	0x3dde82e0	0.10864806
112	0xbe686788	-0.22695744
113	0x3e57fa09	0.21091475
114	0x3c3b92c0	0.011448562
115	0x3e3a8dd8	0.18218172
116	0xbe64bf7f	-0.22338675
117	0x3d48d570	0.049031675
118	0xbd4103b0	-0.047122657
119	0xbdf57ebb	-0.119870625
120	0xbd3d46e0	-0.04621017
121	0xbe1b46a9	-0.15163673
122	0xbdef3230	-0.116794944
123	0xbc5b5fc4	-0.0133895315
124	0xbe1fc6b0	-0.15603137
125	0xbe85868d	-0.26079217
126	0x3d945b50	0.07243979
127	0xbdcf80e8	-0.10132009
128	0xbd565618	-0.0523282
129	0x3d824b25	0.06361989
130	0x3dece624	0.11567333
131	0xbe5f6439	-0.21815576
132	0x3cc917d3	0.024547493
133	0x3e79757b	0.24361221
134	0xbebe547f	-0.3717384
135	0x3d206dda	0.039167263
136	0xbe0df04d	-0.13861199
137	0x3cb854cb	0.02250137
138	0x3e8f55ac	0.2799505
139	0xbd87a012	-0.06622328
140	0x3ebae5e1	0.3650351
141	0xbe7e8110	-0.24853921
142	0x3da8d0a8	0.08242923
143	0x3e9066ff	0.2820358
144	0x3dfd8252	0.12378372
145	0x3d8eec22	0.069786325
146	0xbe6ddc94	-0.23228675
147	0xbe5df4bd	-0.21675391
148	0x3e3ffba1	0.18748333
149	0xbe15952f	-0.1460769
150	0xbdb55670	-0.08854377
151	0xbeac661e	-0.3367166
152	0xbd46c90e	-0.048531584
153	0xbe131295	-0.14362557
154	0xbe4b779e	-0.19869849
155	0x3da05622	0.078289285
156	0x3dc10f02	0.09426691
157	0x3e8ad0df	0.2711248
158	0xbdcfb19a	-0.10141297
159	0x3e8c4532	0.27396542
160	0xbe9a1d3d	-0.30100432
161	0xbe160d8c	-0.14653605
162	0xbe36e3c1	-0.17860319
163	0x3e9477bf	0.2899761
164	0x3da364f3	0.07978239
165	0x3dc07f4a	0.093992785
166	0xbecfa93e	-0.4055881
167	0xbe266d13	-0.16252546
168	0x3e82e869	0.2556794
169	0x3eaced77	0.3377492
170	0xbce0efa4	-0.02745802
171	0x3ddd9f82	0.10821439
172	0x3ed221b0	0.41041327
173	0x3e61692d	0.22012778
174	0x3e4fc42c	0.20289677
175	0x3e5b54a1	0.21419002
176	0xbe6dbd7c	-0.23216814
177	0xbe16517d	-0.14679523
178	0x3ec3a9d5	0.3821551
179	0xbe5e79ae	-0.21726105
180	0x3e24d116	0.16095385
181	0x3dc66eae	0.09689079
182	0x3e4d21ce	0.20032427
183	0xbf0723e9	-0.5278917
184	0xbe6738a2	-0.22580197
185	0x3d75c399	0.06000099
186	0x3e35a73c	0.17739576
187	0x3e7134ae	0.23555252
188	0x3e427c9e	0.1899285
189	0xbd2869ff	-0.04111671
190	0xbdff7f52	-0.12475456
191	0xbe16359f	-0.14668892
192	0xbf373171	-0.71559817
193	0x3e8b1644	0.27165425
194	0xbec833de	-0.39102072
195	0xbe261a30	-0.16220927
196	0xbca54cc4	-0.020178206
197	0x3e94009a	0.2890671
198	0xbf421c9d	-0.7582491
199	0x3d383836	0.044975482
200	0xbefff2b2	-0.4998985
201	0x3e2863b7	0.16444288
202	0x3dd29dde	0.10284017
203	0x3e23e309	0.16004576
204	0x3e25f713	0.16207533
205	0x3cb9b904	0.02267123
206	0x3dcc3312	0.099706784
207	0xbda4ff87	-0.080565505
208	0x3e20e13a	0.15710917
209	0x3d91f9d8	0.07127732
210	0x3c062a96	0.008188864
211	0xbe760c89	-0.2402822
212	0xbe7128b8	-0.23550689
213	0x3e7c8df2	0.24663523
214	0x3e654303	0.22388844
215	0x3ead2a9e	0.33821577
216	0xbaa330f8	-0.0012450507
217	0xbd58134c	-0.052752778
218	0xbe419078	-0.18902767
219	0x3e05e53c	0.13075727
220	0x3e2755bf	0.16341303
221	0xbc3f29f0	-0.0116677135
222	0x3d92f13b	0.07174917
223	0xbe17fd55	-0.14842732
224	0xbdd63d33	-0.104608916
225	0x3e6c86cb	0.23098294
226	0xbef40427	-0.47659418
227	0xbdea491c	-0.11439726
228	0xbe58cf74	-0.21172887
229	0xbd1c73ae	-0.03819626
230	0xbdf36eb8	-0.11886352
231	0x3e3f38b2	0.18673971
232	0xbf05653d	-0.521076
233	0xbd2b4171	-0.041810457
234	0x3e9b8240	0.3037281
235	0xbe4b2eaa	-0.1984202
236	0xbda1274b	-0.07868823
237	0xbc00a53d	-0.007851896
238	0xbe240829	-0.16018738
239	0x3d5f1c3f	0.054470297
240	0xbc9f36c2	-0.01943529
241	0x3df4574d	0.11930714
242	0x3e7146d9	0.23562182
243	0x3dbb2279	0.091374345
244	0x3e2babb7	0.16764723
245	0x3e928037	0.28613445
246	0x3e9149a7	0.28376505
247	0xbc898468	-0.016786769
248	0xbe4092a6	-0.18805942
249	0x3e6f3f16	0.23363909
250	0xbe1a561e	-0.15071914
251	0x3e1ff348	0.15620148
252	0xbd8ac7ed	-0.06776414
253	0x3e16338b	0.146681
254	0x3dc8de1b	0.09807988
255	0x3ea6dc24	0.3258983

sequential_10/dense_47/MatMul f4 [22, 32]
0	0xbd9ca53c	-0.076487035
1	0xbe9605c6	-0.2930128
2	0xbea0fbf6	-0.3144223
3	0xbf4b8eec	-0.79514956
4	0xbef8beda	-0.48583108
5	0x3e91e800	0.28497314
6	0x3d95989c	0.073044986
7	0xbfbeece7	-1.4916047
8	0x3eb4a787	0.35284063
9	0x3b10714a	0.0022040182
10	0x3e3d0f7b	0.18462937
11	0x3c8db691	0.017298969
12	0xbee8e4d9	-0.45487097
13	0xbcf0b21a	-0.0293818
14	0xbe9e2ac1	-0.30891994
15	0x3dc278ac	0.094956726
16	0xbf948505	-1.1603094
17	0x3e83f0e1	0.25769714
18	0xbfc9a507	-1.5753487
19	0xbea896ed	-0.32927647
20	0x3bb537a1	0.005530313
21	0xbdc78de6	-0.09743862
22	0x3e6de231	0.23230816
23	0xc006b3dd	-2.104728
24	0x3e4da7f7	0.20083605
25	0x3cbec103	0.023285395
26	0x3e0046da	0.12527028
27	0x3ec915a8	0.39274335
28	0x3e4b69e1	0.19864608
29	0x3e2bbddc	0.16771644
30	0x3e1f2a39	0.1554345
31	0x3ea5aae4	0.32356942
32	0x3e934eb6	0.2877099
33	0x3d160c18	0.036632627
34	0xbefe1270	-0.49623442
35	0x3e623232	0.2208946
36	0xbf957fe8	-1.1679659
37	0xbdcda956	-0.10042064
38	0xbec5363b	-0.38517937
39	0xbe2164fb	-0.15761177
40	0x3e5469df	0.20743512
41	0xbd8f9506	-0.07010846
42	0x3e517fcc	0.20458907
43	0xbe79a28c	-0.24378413
44	0xbdc721a4	-0.09723213
45	0x3e981d1d	0.29709712
46	0x3ce9cf49	0.028541224
47	0xbe81fa64	-0.25386345
48	0xbe739ef3	-0.23791103
49	0xbec5458e	-0.3852963
50	0x3ec7dd32	0.39035946
51	0xbfd2f8d1	-1.6482183
52	0xbfa22aa0	-1.2669258
53	0x3e4847e9	0.19558682
54	0xbb181ac4	-0.0023209313
55	0xbe0247f6	-0.12722763
56	0xbfdddc84	-1.7332921
57	0x3e22b12a	0.15887895
58	0x3db2d262	0.087315336
59	0x3de36455	0.11103121
60	0x3e789b86	0.24278077
61	0xbdab59a4	-0.08366707
62	0xbd39678e	-0.045264773
63	0x3d930e97	0.07180517
64	0x3c75c4c1	0.015000523
65	0x3e828f6b	0.25500044
66	0x3c8496a4	0.016185112
67	0x3c7229b2	0.014780449
68	0xbf8116ad	-1.0085045
69	0x3e7c63a4	0.24647385
70	0xbe954b57	-0.29159042
71	0xbfaaedcf	-1.3353823
72	0xbbd4ca9b	-0.006493879
73	0x3e92c7ab	0.2866796
74	0xbe1c50db	-0.15265219
75	0xbdd168dc	-0.102250785
76	0x3c61f4d2	0.01379128
77	0x3ea005dc	0.3125447
78	0xbeab8253	-0.33497867
79	0x3e03e472	0.12880114
80	0xbe75a3b2	-0.23988226
81	0x3dc4e263	0.09613492
82	0x3e4195ca	0.18904796
83	0xbee4fb9b	-0.4472321
84	0xbedaddc2	-0.42747313
85	0x3cc9f02d	0.024650658
86	0x3d1607f8	0.036628693
87	0x3e166d4a	0.14690128
88	0x3f184cc4	0.59492135
89	0xbea622e7	-0.32448503
90	0x3e0ac7ff	0.13552855
91	0x3e51a358	0.20472467
92	0x3e3a26dc	0.18178886
93	0xbe12ba8c	-0.14328974
94	0xbfb85aba	-1.4402688
95	0xbe1ba193	-0.15198354
96	0xbe9ec191	-0.31007054
97	0x3e712f5a	0.2355322
98	0x3eead4f8	0.45865607
99	0xbe218e4a	-0.15776935
100	0x3e33eaad	0.1756999
101	0x3e556d81	0.20842554
102	0xbe0c1c06	-0.13682565
103	0x3ebe8f0c	0.3721851
104	0x3c7adf53	0.015312034
105	0x3f567bc4	0.837826
106	0x3d63bafb	0.05559824
107	0xbf8196e2	-1.0124171
108	0xbe7a8b22	-0.24467137
109	0xb99fe988	-0.00030500838
110	0x3dcca48b	0.099923216
111	0x3e4f59b2	0.2024906
112	0x3ea544f0	0.32279158
113	0xbd6288c9	-0.05530623
114	0xbfdef8a8	-1.7419634
115	0xc007d793	-2.1225326
116	0x3e692564	0.2276817
117	0x3e7cc819	0.24685706
118	0x3bf9880a	0.007615094
119	0x3e5a31e0	0.21308088
120	0xbe0762ee	-0.13221332
121	0xbd9eae4d	-0.07748089
122	0xbddf13d6	-0.10892455
123	0x3dd181dc	0.10229847
124	0xbdbba29c	-0.09161875
125	0xbe38a48e	-0.18031523
126	0xbd94aa5c	-0.07259056
127	0xbea304e6	-0.31839675
128	0xbceb287f	-0.028705833
129	0x3e9df509	0.3085101
130	0xbf24c43e	-0.6436194
131	0x3eb3ac52	0.35092407
132	0xbf7c964e	-0.98666847
133	0xbe714f80	-0.23565483
134	0x3db44186	0.0880156
135	0xbfea4757	-1.8303021
136	0xbf113cd1	-0.56733423
137	0x3eb467ae	0.3523535
138	0x3e4de3de	0.20106456
139	0xbed7c715	-0.42144075
140	0xbd5161db	-0.051118713
141	0xbe21b7a4	-0.1579271
142	0xbf23961c	-0.63900924
143	0x3e9e5aec	0.30928743
144	0x3dfd1344	0.1235719
145	0xbee741b5	-0.45167318
146	0x3d1e2c29	0.038616333
147	0xbd329dc5	-0.043607492
148	0xbe4e6d51	-0.20158888
149	0x3eab0fba	0.33410436
150	0x3e791d32	0.24327543
151	0xbe84a013	-0.25903377
152	0x3d3f9c01	0.046779636
153	0x3e0a1c6b	0.13487403
154	0x3e7ff654	0.2499631
155	0x3d22e128	0.039765507
156	0x3d7934cb	0.060841363
157	0x3e705a89	0.23472036
158	0x3d55c4e8	0.052189738
159	0x3d5340bd	0.05157541
160	0x3eb2290f	0.3479695
161	0xbea77286	-0.32704562
162	0x3e1fea59	0.1561674
163	0x3e8f3d14	0.27976286
164	0x3e990302	0.29885107
165	0xbdafccbb	-0.08583971
166	0xbed09f14	-0.40746367
167	0xbd67f404	-0.056629196
168	0xbe8e735a	-0.2782238
169	0xbe1babde	-0.15202281
170	0x3e9309cf	0.2871842
171	0xbebae0a1	-0.36499503
172	0x3ca993c0	0.020700336
173	0xbdeeaf10	-0.11654484
174	0xbeae1e33	-0.34007415
175	0x3e269404	0.16267401
176	0xbe11b6e9	-0.14229931
177	0xc00f8ebb	-2.2430866
178	0xbebd3da6	-0.36961097
179	0x3c960daa	0.018317062
180	0xbfd03bb1	-1.6268216
181	0x3e9f5548	0.31119752
182	0x3d9554a9	0.07291538
183	0x3d87575e	0.06608461
184	0xbdb4628b	-0.08807858
185	0xbda6bd12	-0.08141531
186	0x3ce97930	0.02850017
187	0xbf2c4980	-0.6729965
188	0xbe9e01c5	-0.30860725
189	0x3e539ca6	0.20665225
190	0xbe1281a1	-0.14307262
191	0x3d4d20ed	0.05008023
192	0xbe49b981	-0.1969967
193	0xbe50c9d6	-0.20389494
194	0xbde29c2b	-0.11064943
195	0x3e79ddf7	0.24401079
196	0xbd3fb177	-0.046800103
197	0xbe408e59	-0.18804301
198	0xbea78fbf	-0.32726857
199	0xbecfb6c1	-0.40569118
200	0xbc8c70f2	-0.0171437
201	0xbe97046e	-0.29495567
202	0xbe1ec920	-0.1550641
203	0xbedb30bb	-0.42810616
204	0xbec63a96	-0.38716573
205	0x3e75a622	0.23989156
206	0x3ec09f6f	0.37621638
207	0x3c1c70a0	0.009548336
208	0x3eba9222	0.36439615
209	0x3e84ac31	0.25912622
210	0x3d026a0f	0.031839427
211	0x3d9f7521	0.077860124
212	0xbed64e91	-0.41856816
213	0xbf1a5ea8	-0.60300684
214	0xbf31f466	-0.6951355
215	0x3ec068f7	0.37580082
216	0x3c916582	0.017748598
217	0xbf718fd7	-0.9436011
218	0x3e30a9a2	0.1725221
219	0xbf806890	-1.003191
220	0xbf445d42	-0.767048
221	0xbebfff96	-0.37499684
222	0xbd4a393d	-0.049370993
223	0xbe4e6195	-0.20154412
224	0x3e519507	0.20467006
225	0xbcfbfbd9	-0.030759739
226	0xbeab12c6	-0.3341276
227	0xbe978544	-0.2959386
228	0xbe3ee35f	-0.18641423
229	0xbe4801cc	-0.19531935
230	0xbf8cd750	-1.1003208
231	0x3cf06319	0.029344128
232	0x3d6b383a	0.05742667
233	0xbe55fa1d	-0.20896192
234	0x3e896de1	0.26841643
235	0x3dfea90c	0.12434587
236	0xbf23cec9	-0.63987404
237	0x3e6d1a5f	0.23154591
238	0x3e845a05	0.2584993
239	0x3e5c5687	0.21517383
240	0x3e906b92	0.2820707
241	0xbf17f1ab	-0.5935313
242	0xbfbf2fe8	-1.4936495
243	0x3e5afc22	0.21385244
244	0x3ead46e0	0.33843136
245	0xbea12df8	-0.31480384
246	0x3c69ad8f	0.014262571
247	0x3e0ef594	0.13960868
248	0x3eac9b6e	0.33712333
249	0xbead8bfe	-0.33895868
250	0x3d089718	0.03334722
251	0xbd428781	-0.047492508
252	0xbc00943c	-0.007847842
253	0x3e3d3fb0	0.18481326
254	0xbdd61583	-0.10453322
255	0xbdce6428	-0.10077697
